Projeto_Sensor/models/mahalonobis_model.npz (npz, 3892 bytes, 3 tensors)

mu f8 [15]
00000000: 6666 6666 6686 f03c ec51 b81e 85eb 61bc
00000010: 9a99 9999 9909 eebc c3f5 285c 8f42 f2bc
00000020: 48e1 7a14 ae5f ef3c 5c8f c2f5 28dc f03c
00000030: 7b14 ae47 e17a 643c 85eb 51b8 1e85 e5bc
00000040: ae47 e17a 14ae c3bc b81e 85eb 51b8 dcbc
00000050: 295c 8fc2 f528 d0bc 85eb 51b8 1e85 7bbc
00000060: f628 5c8f c2f5 c2bc 7b14 ae47 e17a d8bc
00000070: 7b14 ae47 e1ba d2bc
3.669287096386142e-15 -7.771561172376097e-18 -3.334832410217814e-15 -4.054534485931072e-15 3.4831859618833506e-15 3.743672039036028e-15 8.881784197001253e-18 -2.389199948993337e-15
-5.46229728115577e-16 -1.5942802633617247e-15 -8.970602038971265e-16 -2.3869795029440865e-17 -5.262457136723242e-16 -1.3589129821411916e-15 -1.0397238625614591e-15

cov f8 [15, 15]
00000000: 16bc 9c82 9753 f03f 2195 e5bc 3db5 d4bf
00000010: 2040 8ba4 30d1 d43f 69d9 65d8 ab50 f03f
00000020: 4a39 552e b999 dc3f 100e 9371 e9cb c9bf
00000030: fcec 36d8 9b39 d1bf c006 72c9 471d d3bf
00000040: 02cf e1bd 8940 c8bf 848b d681 fc9b d3bf
00000050: 32be 4aa9 e143 8dbf c904 dfef 0a1f c63f
00000060: a172 8240 1ea6 b33f 034e 37ad 773d 8bbf
00000070: 3407 1f9d 73f4 ba3f 2195 e5bc 3db5 d4bf
00000080: 15bc 9c82 9753 f03f 17d0 8145 e29e e33f
00000090: bfa8 ba99 98ac d4bf 3be0 bbdb 1276 e03f
000000a0: fa9b 903b 89ae a7bf 9604 7270 eccd a6bf
000000b0: 6e2f 3f08 7832 77bf c5a9 cba0 5756 a7bf
000000c0: da41 4e97 2369 723f c009 d6bb 882a c0bf
000000d0: 2acd 69ca bb67 cbbf 03ef 169c 6847 c6bf
000000e0: 2960 6e2f 3f69 c1bf 327b 1868 2d39 c9bf
000000f0: 2040 8ba4 30d1 d43f 17d0 8145 e29e e33f
00000100: 15bc 9c82 9753 f03f 53ec 5b55 dbf7 d43f
00000110: d90c 047b b0cb ed3f cf79 c841 2798 a9bf
00000120: d3dc 4da6 e565 c5bf 938f b1e2 3851 c6bf
00000130: 3a08 bdec 80bc a3bf 2f72 1010 a103 c6bf
00000140: db91 7524 5c1a d5bf bf6b 4992 36d0 9ebf
00000150: bd4d b0d3 8bd9 bebf c671 e6e9 bc5e d5bf
00000160: 95e5 08d3 0b75 c1bf 69d9 65d8 ab50 f03f
00000170: bfa8 ba99 98ac d4bf 53ec 5b55 dbf7 d43f
00000180: 15bc 9c82 9753 f03f 0b5d ec2d 35bd dc3f
00000190: a1f3 7c63 7898 c8bf e23e 782e 2974 d0bf
000001a0: 2f1d fbb9 7560 d2bf fe1b f427 a612 c7bf
000001b0: b5a6 5fe4 f7f1 d2bf 27f6 2466 07be 8abf
000001c0: ce2b 030f 90d1 c63f e1ae 7d09 b49a b43f
000001d0: a416 543a 3917 89bf a8cb 4537 e5fe bb3f
000001e0: 4a39 552e b999 dc3f 3be0 bbdb 1276 e03f
000001f0: d90c 047b b0cb ed3f 0b5d ec2d 35bd dc3f
00000200: 16bc 9c82 9753 f03f c585 4857 2d29 acbf
00000210: 1ea5 e07f c8de c1bf 1ab8 8b96 5486 c1bf
00000220: f0c6 1e6d 9123 a6bf 0304 40f4 0c33 bebf
00000230: 3b5a 8b4d 4974 d3bf 5f3e 307a c707 b2bf
00000240: 242b b922 7769 bcbf be9f f09d fccf d3bf
00000250: 7d47 1ef5 30fa c3bf 100e 9371 e9cb c9bf
00000260: fa9b 903b 89ae a7bf cf79 c841 2798 a9bf
00000270: a1f3 7c63 7898 c8bf c585 4857 2d29 acbf
00000280: 13bc 9c82 9753 f03f 47a5 8e4e 1dcc e03f
00000290: 3a48 2209 918d e73f 48b9 f116 4351 f03f
000002a0: d747 5465 0085 e93f 7d71 9b41 d1db aebf
000002b0: b661 1f2d 6ab6 90bf fdec 21e0 69f3 a3bf
000002c0: d561 7d6a 63a6 afbf b664 ec17 9b37 bebf
000002d0: fcec 36d8 9b39 d1bf 9604 7270 eccd a6bf
000002e0: d3dc 4da6 e565 c5bf e23e 782e 2974 d0bf
000002f0: 1ea5 e07f c8de c1bf 47a5 8e4e 1dcc e03f
00000300: 12bc 9c82 9753 f03f 283a 2f2e 0a75 eb3f
00000310: 27e6 456d f49a e03f 4326 7481 acd3 ea3f
00000320: 1889 decb 1243 a93f 6e90 3a88 1a39 a9bf
00000330: 0c5a 0d2e 993b bd3f 25b1 8aed f6f0 a53f
00000340: 78b9 62d3 7884 aa3f c006 72c9 471d d3bf
00000350: 6e2f 3f08 7832 77bf 938f b1e2 3851 c6bf
00000360: 2f1d fbb9 7560 d2bf 1ab8 8b96 5486 c1bf
00000370: 3a48 2209 918d e73f 283a 2f2e 0a75 eb3f
00000380: 14bc 9c82 9753 f03f 4e4f 70e1 1876 e73f
00000390: c522 f6c4 34d6 ed3f ffa2 9a92 bd7f b63f
000003a0: ae49 e00b 96f8 c2bf 9600 b069 9c55 a63f
000003b0: 5fa0 d03b 113c b43f 585f 909b 4bb1 a8bf
000003c0: 02cf e1bd 8940 c8bf c5a9 cba0 5756 a7bf
000003d0: 3a08 bdec 80bc a3bf fe1b f427 a612 c7bf
000003e0: f0c6 1e6d 9123 a6bf 48b9 f116 4351 f03f
000003f0: 27e6 456d f49a e03f 4e4f 70e1 1876 e73f
00000400: 14bc 9c82 9753 f03f 6715 c74e 755c e93f
00000410: e8d9 a2d2 2b03 b1bf da38 62f9 799e 93bf
00000420: 03c6 fa14 e95a a7bf c3c0 82d9 7773 b1bf
00000430: bb15 0e76 5acc bfbf 848b d681 fc9b d3bf
00000440: da41 4e97 2369 723f 2f72 1010 a103 c6bf
00000450: b5a6 5fe4 f7f1 d2bf 0304 40f4 0c33 bebf
00000460: d747 5465 0085 e93f 4326 7481 acd3 ea3f
00000470: c522 f6c4 34d6 ed3f 6715 c74e 755c e93f
00000480: 15bc 9c82 9753 f03f 5feb d593 2cd4 913f
00000490: 3072 73ea fda0 c2bf bd0c c340 0c1e 8fbf
000004a0: f2c1 20c7 126e 873f 296b f98b e51d bcbf
000004b0: 32be 4aa9 e143 8dbf c009 d6bb 882a c0bf
000004c0: db91 7524 5c1a d5bf 27f6 2466 07be 8abf
000004d0: 3b5a 8b4d 4974 d3bf 7d71 9b41 d1db aebf
000004e0: 1889 decb 1243 a93f ffa2 9a92 bd7f b63f
000004f0: e8d9 a2d2 2b03 b1bf 5feb d593 2cd4 913f
00000500: 13bc 9c82 9753 f03f 814c e136 a06f 81bf
00000510: 6db7 e642 67fd da3f 6462 e5e3 7c4e f03f
00000520: 96df d72e 830d de3f c904 dfef 0a1f c63f
00000530: 2acd 69ca bb67 cbbf bf6b 4992 36d0 9ebf
00000540: ce2b 030f 90d1 c63f 5f3e 307a c707 b2bf
00000550: b661 1f2d 6ab6 90bf 6e90 3a88 1a39 a9bf
00000560: ae49 e00b 96f8 c2bf da38 62f9 799e 93bf
00000570: 3072 73ea fda0 c2bf 814c e136 a06f 81bf
00000580: 13bc 9c82 9753 f03f d7f4 1b3a 6c1c e93f
00000590: 0ec6 3d2b 6510 553f 5782 b0ef 8ba0 e93f
000005a0: a172 8240 1ea6 b33f 03ef 169c 6847 c6bf
000005b0: bd4d b0d3 8bd9 bebf e1ae 7d09 b49a b43f
000005c0: 242b b922 7769 bcbf fdec 21e0 69f3 a3bf
000005d0: 0c5a 0d2e 993b bd3f 9600 b069 9c55 a63f
000005e0: 03c6 fa14 e95a a7bf bd0c c340 0c1e 8fbf
000005f0: 6db7 e642 67fd da3f d7f4 1b3a 6c1c e93f
00000600: 16bc 9c82 9753 f03f 9811 ee98 f988 db3f
00000610: 934f a57a c6bc ee3f 034e 37ad 773d 8bbf
00000620: 2960 6e2f 3f69 c1bf c671 e6e9 bc5e d5bf
00000630: a416 543a 3917 89bf be9f f09d fccf d3bf
00000640: d561 7d6a 63a6 afbf 25b1 8aed f6f0 a53f
00000650: 5fa0 d03b 113c b43f c3c0 82d9 7773 b1bf
00000660: f2c1 20c7 126e 873f 6462 e5e3 7c4e f03f
00000670: 0ec6 3d2b 6510 553f 9811 ee98 f988 db3f
00000680: 13bc 9c82 9753 f03f 1971 c81e e893 de3f
00000690: 3407 1f9d 73f4 ba3f 327b 1868 2d39 c9bf
000006a0: 95e5 08d3 0b75 c1bf a8cb 4537 e5fe bb3f
000006b0: 7d47 1ef5 30fa c3bf b664 ec17 9b37 bebf
000006c0: 78b9 62d3 7884 aa3f 585f 909b 4bb1 a8bf
000006d0: bb15 0e76 5acc bfbf 296b f98b e51d bcbf
000006e0: 96df d72e 830d de3f 5782 b0ef 8ba0 e93f
000006f0: 934f a57a c6bc ee3f 1971 c81e e893 de3f
00000700: 15bc 9c82 9753 f03f
1.0204081632653064 -0.3235620827384356 0.32526794499153944 1.0196951344529117 0.44688252949426455 -0.20153539701105716 -0.26914116015150547 -0.2986621348610292
-0.18946954509339525 -0.3063956516218058 -0.014289629916077382 0.1728223487134868 0.07675351214352101 -0.013300833676942686 0.10529253564803015 -0.3235620827384356
1.0204081632653061 0.613145004039782 -0.32303442967043944 0.5144132892301124 -0.04625347950086929 -0.044539822317355135 -0.005663365245663117 -0.045580614450802005
0.0044947996401707106 -0.12629803821262264 -0.2141031969400527 -0.17405421849786515 -0.1360243779752193 -0.19705741484445977 0.32526794499153944 0.613145004039782
1.0204081632653061 0.3276279767594065 0.9311144259121661 -0.049988962917484885 -0.16717215175933706 -0.17435370511077206 -0.03854754342911844 -0.17198575291048843
-0.3297338825271063 -0.030091145208966937 -0.12050699155979934 -0.3339073452168829 -0.13638446621352487 1.0196951344529117 -0.32303442967043944 0.3276279767594065
1.0204081632653061 0.44904832348534346 -0.1921530233174993 -0.25708989656503267 -0.2871374431819786 -0.18025662375313795 -0.29601857473481213 -0.0130577638670913
0.17827034695650784 0.0804855845614685 -0.012251326649230627 0.10935814475469263 0.44688252949426455 0.5144132892301124 0.9311144259121661 0.44904832348534346
1.0204081632653064 -0.05500165644140113 -0.1396113037492705 -0.136911939152413 -0.04324011284860585 -0.11796647036682377 -0.30397255490007397 -0.07043120129696366
-0.11098427388894244 -0.3095695059187128 -0.15607273071924146 -0.20153539701105716 -0.04625347950086929 -0.049988962917484885 -0.1921530233174993 -0.05500165644140113
1.0204081632653057 0.524916318351793 0.7360310724636812 1.0198393722781294 0.7974855403028823 -0.06027082372540613 -0.016320857051910408 -0.038966473207404186
-0.0618163173191452 -0.11803597768848104 -0.26914116015150547 -0.044539822317355135 -0.16717215175933706 -0.25708989656503267 -0.1396113037492705 0.524916318351793
1.0204081632653055 0.8580370809593818 0.5189153799285052 0.8383390930550337 0.0493398546089045 -0.049263791207779004 0.11419064878769108 0.04285403871230845
0.05179193096533913 -0.2986621348610292 -0.005663365245663117 -0.17435370511077206 -0.2871374431819786 -0.136911939152413 0.7360310724636812 0.8580370809593818
1.020408163265306 0.7331661608791167 0.9323982092765496 0.08788666562271528 -0.14821124629868393 0.0436219100010941 0.07904155454946381 -0.04822765611623819
-0.18946954509339525 -0.045580614450802005 -0.03854754342911844 -0.18025662375313795 -0.04324011284860585 1.0198393722781294 0.5189153799285052 0.7331661608791167
1.020408163265306 0.7925364054323553 -0.06645463840946031 -0.019159227224513888 -0.04561546689127385 -0.06816815433808458 -0.12421193487360586 -0.3063956516218058
0.0044947996401707106 -0.17198575291048843 -0.29601857473481213 -0.11796647036682377 0.7974855403028823 0.8383390930550337 0.9323982092765496 0.7925364054323553
1.0204081632653061 0.017410942576570828 -0.1455380816249927 -0.015194030500771278 0.011440417005446488 -0.10983118693677042 -0.014289629916077382 -0.12629803821262264
-0.3297338825271063 -0.0130577638670913 -0.30397255490007397 -0.06027082372540613 0.0493398546089045 0.08788666562271528 -0.06645463840946031 0.017410942576570828
1.0204081632653057 -0.008513690638358053 0.42171651395152915 1.0191620733441136 0.46957473349129353 0.1728223487134868 -0.2141031969400527 -0.030091145208966937
0.17827034695650784 -0.07043120129696366 -0.016320857051910408 -0.049263791207779004 -0.14821124629868393 -0.019159227224513888 -0.1455380816249927 -0.008513690638358053
1.0204081632653057 0.7847195753999142 0.0012856471994066062 0.8008479768214539 0.07675351214352101 -0.17405421849786515 -0.12050699155979934 0.0804855845614685
-0.11098427388894244 -0.038966473207404186 0.11419064878769108 0.0436219100010941 -0.04561546689127385 -0.015194030500771278 0.42171651395152915 0.7847195753999142
1.0204081632653064 0.4302352899033166 0.9605438609528271 -0.013300833676942686 -0.1360243779752193 -0.3339073452168829 -0.012251326649230627 -0.3095695059187128
-0.0618163173191452 0.04285403871230845 0.07904155454946381 -0.06816815433808458 0.011440417005446488 1.0191620733441136 0.0012856471994066062 0.4302352899033166
1.0204081632653057 0.4777775097479818 0.10529253564803015 -0.19705741484445977 -0.13638446621352487 0.10935814475469263 -0.15607273071924146 -0.11803597768848104
0.05179193096533913 -0.04822765611623819 -0.12421193487360586 -0.10983118693677042 0.46957473349129353 0.8008479768214539 0.9605438609528271 0.4777775097479818
1.0204081632653061

threshold f8 []
00000000: a843 acb8 2e81 2040
8.252309580829959
