Projeto_Sensor/models/mahalonobis_model.npz (npz, 2674 bytes, 3 tensors)

mu f8 [15]
00000000: 0000 0000 0000 d43c 3333 3333 3333 e33c
00000010: 9a99 9999 9999 cfbc 0000 0000 0000 b8bc
00000020: a470 3d0a d7a3 a03c 295c 8fc2 f528 b1bc
00000030: 3d0a d7a3 703d c43c 9a99 9999 9999 89bc
00000040: ec51 b81e 85eb 71bc 7b14 ae47 e17a a4bc
00000050: 8fc2 f528 5c8f 923c 0ad7 a370 3d0a 97bc
00000060: c3f5 285c 8fc2 cdbc d7a3 703d 0ad7 d33c
00000070: 713d 0ad7 a370 f13c
1.1102230246251565e-15 2.1316282072803005e-15 -8.770761894538737e-16 -3.3306690738754696e-16 1.1546319456101628e-16 -2.381428387820961e-16 5.617728504603292e-16 -4.4408920985006264e-17
-1.5543122344752193e-17 -1.4210854715202004e-16 6.439293542825907e-17 -7.993605777301127e-17 -8.260059303211165e-16 1.1013412404281553e-15 3.872457909892546e-15

cov f8 [15, 15]
00000000: 13bc 9c82 9753 f03f 5f2d f7c2 375d cc3f
00000010: c669 6913 3bb9 bd3f dfde 67db eaa6 e13f
00000020: df5a a520 6131 d03f 3867 bec9 bfd3 c53f
00000030: 9a41 bace 1ea1 c9bf b155 f9c5 10a2 c83f
00000040: 078b bab1 184e d43f d669 afb9 f3e6 c8bf
00000050: 8529 3b27 d652 be3f 2bed 529e 99a2 d33f
00000060: cb48 44e6 00a4 e33f 799e c521 e62c ce3f
00000070: 469a c7b3 f7d5 a93f 5f2d f7c2 375d cc3f
00000080: 15bc 9c82 9753 f03f c189 2a68 a7a7 c8bf
00000090: 7a7c 4063 21bc bb3f 3f35 2b1f d84a e03f
000000a0: b86a 5000 7ee5 a1bf c9dd 6d91 f75f c8bf
000000b0: 32ff aa17 cbd1 b7bf eb2d 54ab d441 753f
000000c0: b3d8 8a39 3386 c2bf 4b89 32ae fb0e a7bf
000000d0: 4f71 b8fb 46c8 8ebf 7ef5 ed9b d1a5 c23f
000000e0: fb39 cb60 91b7 e03f 43b9 8dfa c5d9 823f
000000f0: c669 6913 3bb9 bd3f c189 2a68 a7a7 c8bf
00000100: 14bc 9c82 9753 f03f 4691 3c28 2fe0 8c3f
00000110: 32f5 1eb0 3888 aabf 69d3 3944 8f96 e53f
00000120: 1513 c547 2245 c33f 7051 86cf 3cec a33f
00000130: 988f fb8d 1a83 b53f 3a85 c06b 1803 c63f
00000140: 77c1 dbbf 64f7 a03f 43a2 a015 4e78 b53f
00000150: ce1a 2cdf 21da a0bf 3cbf f751 c75d 803f
00000160: 7ebf 3da6 3533 e33f dfde 67db eaa6 e13f
00000170: 7a7c 4063 21bc bb3f 4691 3c28 2fe0 8c3f
00000180: 15bc 9c82 9753 f03f 1800 d13f 853d cc3f
00000190: f0f5 9b8a a7db c63f 13cb c26b 5855 db3f
000001a0: bf1b 92bb 1ae0 8dbf 8717 9a60 fbc8 d33f
000001b0: 266b 61ab 4937 d33f 3d57 bcd3 b898 b7bf
000001c0: a0f5 165e a8ea d03f e42f 1f2b 7714 ef3f
000001d0: 941a 67e2 50d0 cd3f c9ce bc06 4d71 b43f
000001e0: df5a a520 6131 d03f 3f35 2b1f d84a e03f
000001f0: 32f5 1eb0 3888 aabf 1800 d13f 853d cc3f
00000200: 12bc 9c82 9753 f03f 70e7 a09a d0ff a9bf
00000210: ba0e f640 3a5c b53f c389 c1cc 93e5 d93f
00000220: 9ea4 5e10 6a00 d7bf 6dbb bf5a 4828 b23f
00000230: db33 7bfc c711 cc3f e429 324d 4868 d1bf
00000240: 8b12 9997 7211 ca3f f196 831f 71f7 ee3f
00000250: 0b5a a26a bc58 b03f 3867 bec9 bfd3 c53f
00000260: b86a 5000 7ee5 a1bf 69d3 3944 8f96 e53f
00000270: f0f5 9b8a a7db c63f 70e7 a09a d0ff a9bf
00000280: 13bc 9c82 9753 f03f ab00 2ebe 768d c53f
00000290: cc85 a38e 9185 9bbf 8110 682e 6d2e d23f
000002a0: 06d3 ce93 c8d1 c33f 161c 967f 9725 a3bf
000002b0: a99b 5aaa ed82 b63f b05d 67cf fab9 be3f
000002c0: d0d8 ff18 5ba0 58bf ff15 ed09 b029 ee3f
000002d0: 9a41 bace 1ea1 c9bf c9dd 6d91 f75f c8bf
000002e0: 1513 c547 2245 c33f 13cb c26b 5855 db3f
000002f0: ba0e f640 3a5c b53f ab00 2ebe 768d c53f
00000300: 16bc 9c82 9753 f03f eb89 c627 6eab a7bf
00000310: 729b 20c7 8e00 babf 3eca 3283 5b48 ed3f
00000320: f875 8812 60cc b8bf f2e8 f9c0 3b66 cbbf
00000330: a088 5ba1 6d33 c83f df71 af59 e61f b63f
00000340: d7aa 8dd6 0da8 cc3f b155 f9c5 10a2 c83f
00000350: 32ff aa17 cbd1 b7bf 7051 86cf 3cec a33f
00000360: bf1b 92bb 1ae0 8dbf c389 c1cc 93e5 d93f
00000370: cc85 a38e 9185 9bbf eb89 c627 6eab a7bf
00000380: 14bc 9c82 9753 f03f 5446 f4e3 5d91 b9bf
00000390: 3609 0a9e 53a6 a4bf 7f28 8ab2 f6cb ed3f
000003a0: e756 f82f 69f9 91bf 1943 78c8 1ec4 8ebf
000003b0: 72de 2828 1a21 c53f ed30 22fd c339 793f
000003c0: 078b bab1 184e d43f eb2d 54ab d441 753f
000003d0: 988f fb8d 1a83 b53f 8717 9a60 fbc8 d33f
000003e0: 9ea4 5e10 6a00 d7bf 8110 682e 6d2e d23f
000003f0: 729b 20c7 8e00 babf 5446 f4e3 5d91 b9bf
00000400: 13bc 9c82 9753 f03f e70b fea6 1e12 c3bf
00000410: 9432 38b4 a0c3 99bf 9226 7ab2 36c8 ed3f
00000420: 2873 86ca db92 d73f 9c6e e171 10eb d4bf
00000430: 7f9f 1397 34ee aebf d669 afb9 f3e6 c8bf
00000440: b3d8 8a39 3386 c2bf 3a85 c06b 1803 c63f
00000450: 266b 61ab 4937 d33f 6dbb bf5a 4828 b23f
00000460: 06d3 ce93 c8d1 c33f 3eca 3283 5b48 ed3f
00000470: 3609 0a9e 53a6 a4bf e70b fea6 1e12 c3bf
00000480: 14bc 9c82 9753 f03f 4b67 0828 c25f b2bf
00000490: d311 5590 305b cfbf 204c 73b0 98d6 903f
000004a0: 7031 b83a b142 a93f e814 71a2 9dc9 ce3f
000004b0: 8529 3b27 d652 be3f 4b89 32ae fb0e a7bf
000004c0: 77c1 dbbf 64f7 a03f 3d57 bcd3 b898 b7bf
000004d0: db33 7bfc c711 cc3f 161c 967f 9725 a3bf
000004e0: f875 8812 60cc b8bf 7f28 8ab2 f6cb ed3f
000004f0: 9432 38b4 a0c3 99bf 4b67 0828 c25f b2bf
00000500: 15bc 9c82 9753 f03f cb4a b2ac 7dfd a73f
00000510: d414 3283 ef69 b4bf 3c78 da37 5ae3 a1bf
00000520: 2d04 7bcf 9a76 7ebf 2bed 529e 99a2 d33f
00000530: 4f71 b8fb 46c8 8ebf 43a2 a015 4e78 b53f
00000540: a0f5 165e a8ea d03f e429 324d 4868 d1bf
00000550: a99b 5aaa ed82 b63f f2e8 f9c0 3b66 cbbf
00000560: e756 f82f 69f9 91bf 9226 7ab2 36c8 ed3f
00000570: d311 5590 305b cfbf cb4a b2ac 7dfd a73f
00000580: 18bc 9c82 9753 f03f c6d5 f4a4 9885 d63f
00000590: c7df 8f63 9331 cfbf 1c2c 83ae 0d7e cfbf
000005a0: cb48 44e6 00a4 e33f 7ef5 ed9b d1a5 c23f
000005b0: ce1a 2cdf 21da a0bf e42f 1f2b 7714 ef3f
000005c0: 8b12 9997 7211 ca3f b05d 67cf fab9 be3f
000005d0: a088 5ba1 6d33 c83f 1943 78c8 1ec4 8ebf
000005e0: 2873 86ca db92 d73f 204c 73b0 98d6 903f
000005f0: d414 3283 ef69 b4bf c6d5 f4a4 9885 d63f
00000600: 13bc 9c82 9753 f03f 18f5 8c84 1002 ce3f
00000610: 3512 942b b352 81bf 799e c521 e62c ce3f
00000620: fb39 cb60 91b7 e03f 3cbf f751 c75d 803f
00000630: 941a 67e2 50d0 cd3f f196 831f 71f7 ee3f
00000640: d0d8 ff18 5ba0 58bf df71 af59 e61f b63f
00000650: 72de 2828 1a21 c53f 9c6e e171 10eb d4bf
00000660: 7031 b83a b142 a93f 3c78 da37 5ae3 a1bf
00000670: c7df 8f63 9331 cfbf 18f5 8c84 1002 ce3f
00000680: 14bc 9c82 9753 f03f a992 ab70 0e03 b63f
00000690: 469a c7b3 f7d5 a93f 43b9 8dfa c5d9 823f
000006a0: 7ebf 3da6 3533 e33f c9ce bc06 4d71 b43f
000006b0: 0b5a a26a bc58 b03f ff15 ed09 b029 ee3f
000006c0: d7aa 8dd6 0da8 cc3f ed30 22fd c339 793f
000006d0: 7f9f 1397 34ee aebf e814 71a2 9dc9 ce3f
000006e0: 2d04 7bcf 9a76 7ebf 1c2c 83ae 0d7e cfbf
000006f0: 3512 942b b352 81bf a992 ab70 0e03 b63f
00000700: 16bc 9c82 9753 f03f
1.0204081632653057 0.2215947820644528 0.1161076471702592 0.5516256604450652 0.2530138796623031 0.17052457190293935 -0.20022950262183487 0.19244584719369365
0.3172666297561339 -0.19454809729252415 0.11845148523130973 0.30679932080575395 0.6137699601552183 0.2357452073003861 0.050460568137897385 0.2215947820644528
1.0204081632653061 -0.19261639200438022 0.1083393924059112 0.509136258007551 -0.03495401147684646 -0.19042868233712643 -0.09304494216757744 0.005189734210272227
-0.14472046193777074 -0.04503618718560406 -0.015030436093234427 0.14568538774248546 0.5224081888680411 0.009204432209767638 0.1161076471702592 -0.19261639200438022
1.020408163265306 0.014099472442076998 -0.05182053708947833 0.6746288616692314 0.15054729942689762 0.03891172440777069 0.08403173414586573 0.17196946393327456
0.03313746301671732 0.08386695888533162 -0.03291421746512456 0.007991368473966191 0.6000011679552555 0.5516256604450652 0.1083393924059112 0.014099472442076998
1.0204081632653061 0.2206274568179658 0.17857832210567848 0.42708406947638017 -0.014587601517872415 0.30914196428090474 0.3002494977605913 -0.09217410249069942
0.26432236851163715 0.9712482301924834 0.23291979842015975 0.07985383429041372 0.2530138796623031 0.509136258007551 -0.05182053708947833 0.2206274568179658
1.0204081632653055 -0.050779837489655644 0.08343853078809618 0.4046372890062708 -0.3594002876148553 0.07092716422606112 0.21929263904749416 -0.2719898942820278
0.2036574592804253 0.967705308485817 0.06385400393842404 0.17052457190293935 -0.03495401147684646 0.6746288616692314 0.17857832210567848 -0.050779837489655644
1.0204081632653057 0.16837963377111484 -0.026876711207369827 0.28408364803204483 0.15483958451445562 -0.03739617760134466 0.08793530854255373 0.12002532542771038
-0.0015030755639578348 0.9425888246411772 -0.20022950262183487 -0.19042868233712643 0.15054729942689762 0.42708406947638017 0.08343853078809618 0.16837963377111484
1.0204081632653064 -0.046229784350788915 -0.10157101022251228 0.915082699057457 -0.09686851932971041 -0.2140574161783842 0.1890694654349021 0.08642425241072925
0.22387860275497104 0.19244584719369365 -0.09304494216757744 0.03891172440777069 -0.014587601517872415 0.4046372890062708 -0.026876711207369827 -0.046229784350788915
1.020408163265306 -0.09987437072074928 -0.04033147148313036 0.9311479079344877 -0.017552989533291898 -0.015022507183887467 0.16507269822044496 0.006158605176221449
0.3172666297561339 0.005189734210272227 0.08403173414586573 0.30914196428090474 -0.3594002876148553 0.28408364803204483 -0.10157101022251228 -0.09987437072074928
1.0204081632653057 -0.1489904704468181 -0.025160323142744703 0.9306901441461426 0.36833853509760894 -0.32684718247558364 -0.06041111320683878 -0.19454809729252415
-0.14472046193777074 0.17196946393327456 0.3002494977605913 0.07092716422606112 0.15483958451445562 0.915082699057457 -0.04033147148313036 -0.1489904704468181
1.020408163265306 -0.0717736575828926 -0.24497038886523956 0.01644362046210912 0.04933694688597512 0.24052782470440737 0.11845148523130973 -0.04503618718560406
0.03313746301671732 -0.09217410249069942 0.21929263904749416 -0.03739617760134466 -0.09686851932971041 0.9311479079344877 -0.025160323142744703 -0.0717736575828926
1.0204081632653061 0.046855857211217954 -0.07974144890802687 -0.034937686269799845 -0.007437329033281021 0.30679932080575395 -0.015030436093234427 0.08386695888533162
0.26432236851163715 -0.2719898942820278 0.08793530854255373 -0.2140574161783842 -0.017552989533291898 0.9306901441461426 -0.24497038886523956 0.046855857211217954
1.0204081632653068 0.3519040690328804 -0.24370043145586193 -0.24603434582817918 0.6137699601552183 0.14568538774248546 -0.03291421746512456 0.9712482301924834
0.2036574592804253 0.12002532542771038 0.1890694654349021 -0.015022507183887467 0.36833853509760894 0.01644362046210912 -0.07974144890802687 0.3519040690328804
1.0204081632653057 0.23443800422857275 -0.008458518760115922 0.2357452073003861 0.5224081888680411 0.007991368473966191 0.23291979842015975 0.967705308485817
-0.0015030755639578348 0.08642425241072925 0.16507269822044496 -0.32684718247558364 0.04933694688597512 -0.034937686269799845 -0.24370043145586193 0.23443800422857275
1.020408163265306 0.08598413706529108 0.050460568137897385 0.009204432209767638 0.6000011679552555 0.07985383429041372 0.06385400393842404 0.9425888246411772
0.22387860275497104 0.006158605176221449 -0.06041111320683878 0.24052782470440737 -0.007437329033281021 -0.24603434582817918 -0.008458518760115922 0.08598413706529108
1.0204081632653064

threshold f8 []
00000000: 7008 c0e6 ffdf 1940
6.468749623747598
