models/mahalonobis_model.npz (npz, 2674 bytes, 3 tensors)

mu f8 [15]
2.020605904817785e-15 2.4313884239290927e-15 -4.216627047526344e-15 -1.1990408665951691e-16 -1.4521717162097048e-15 -6.217248937900877e-17 3.4083846855992304e-16 -2.3092638912203257e-16
1.4210854715202004e-16 3.9968028886505634e-17 -2.220446049250313e-18 -5.329070518200751e-17 -2.5379698342931078e-15 -1.1657341758564144e-16 2.2870594307278225e-16
00000000: 3333 3333 3333 e23c 6666 6666 66e6 e53c
00000010: 3d0a d7a3 70fd f2bc 48e1 7a14 ae47 a1bc
00000020: 295c 8fc2 f528 dabc ec51 b81e 85eb 91bc
00000030: 8fc2 f528 5c8f b83c a470 3d0a d7a3 b0bc
00000040: 7b14 ae47 e17a a43c 0ad7 a370 3d0a 873c
00000050: 7b14 ae47 e17a 44bc b81e 85eb 51b8 8ebc
00000060: 5c8f c2f5 28dc e6bc cdcc cccc cccc a0bc
00000070: 7b14 ae47 e17a b03c

cov f8 [15, 15]
1.0204081632653057 0.006723983738405497 0.02327957772938118 0.5711096220343109 -0.04080804155410517 0.008444064465056068 -0.005408697853656187 -0.2173222975452966
0.09430081500585953 0.010978757605922821 -0.24350150320283387 0.05297721491382321 0.6171489006650902 0.036294865020915106 -0.03761276562495429 0.006723983738405497
1.0204081632653064 -0.41641538080358614 0.009838932128952697 0.5275878096931091 -0.11583416588465613 0.04889041470704503 -0.14123541388101124 0.1510853964314652
0.11407784234743065 -0.039532719803523506 0.15170964245086666 0.008210510075854922 0.5741663401405557 -0.10262722290354491 0.02327957772938118 -0.41641538080358614
1.0204081632653061 0.1219275685895524 -0.22443505330706104 0.6249698551903942 0.19280503548606787 -0.0050407920108830875 -0.17581577223114134 0.19295928117811847
-0.04008026730636729 -0.2143157077079678 0.06689751714067727 -0.1683642900720536 0.6555885989974812 0.5711096220343109 0.009838932128952697 0.1219275685895524
1.0204081632653057 0.03432087325706331 0.04240832567257154 0.5902026533001415 -0.08606821447580833 0.09198915143057255 0.4480374697617682 -0.14369878439840983
-0.08260276504506799 0.9901559767364733 0.12873490066238272 0.030518720105634407 -0.04080804155410517 0.5275878096931091 -0.22443505330706104 0.03432087325706331
1.0204081632653057 -0.15028412204196206 0.14341069569408163 0.43563417586387976 0.06369159778014429 0.11205233284784995 0.43774079418812367 0.07180115326503247
0.04415876519487889 0.9383335293710643 -0.14843093986772457 0.008444064465056068 -0.11583416588465613 0.6249698551903942 0.04240832567257154 -0.15028412204196206
1.0204081632653057 0.08451419849274315 0.011412440342178958 0.40394007953175654 0.13854244160825385 -0.0439604979512956 0.2406998057609079 -0.015003951591302528
-0.15370499992791015 0.9461346334788039 -0.005408697853656187 0.04889041470704503 0.19280503548606787 0.5902026533001415 0.14341069569408163 0.08451419849274315
1.020408163265306 0.11341903060077922 0.06194499565776115 0.918331892391283 -0.004730158055654199 -0.043463140611226206 0.4433578437358857 0.1445521542548658
0.07603462304688076 -0.2173222975452966 -0.14123541388101124 -0.0050407920108830875 -0.08606821447580833 0.43563417586387976 0.011412440342178958 0.11341903060077922
1.0204081632653055 -0.019984830345327883 0.030831982655676847 0.9290790906915071 -0.04557502680193114 -0.09808540533461234 0.09667208133309832 0.014250029836631877
0.09430081500585953 0.1510853964314652 -0.17581577223114134 0.09198915143057255 0.06369159778014429 0.40394007953175654 0.06194499565776115 -0.019984830345327883
1.0204081632653061 0.06336496419136844 -0.05845931089732568 0.908409751121581 0.040239839845765214 0.04274148874773155 0.14372190720677208 0.010978757605922821
0.11407784234743065 0.19295928117811847 0.4480374697617682 0.11205233284784995 0.13854244160825385 0.918331892391283 0.030831982655676847 0.06336496419136844
1.0204081632653064 -0.07007277731648417 0.02583917696908056 0.26776054802675936 0.12952084646476134 0.11147970113506843 -0.24350150320283387 -0.039532719803523506
-0.04008026730636729 -0.14369878439840983 0.43774079418812367 -0.0439604979512956 -0.004730158055654199 0.9290790906915071 -0.05845931089732568 -0.07007277731648417
1.0204081632653061 -0.06734437210484347 -0.14100196976227886 0.1002252700852987 -0.017856072371672464 0.05297721491382321 0.15170964245086666 -0.2143157077079678
-0.08260276504506799 0.07180115326503247 0.2406998057609079 -0.043463140611226206 -0.04557502680193114 0.908409751121581 0.02583917696908056 -0.06734437210484347
1.0204081632653057 -0.13357202360304654 0.05172148963420876 -0.0696588750092178 0.6171489006650902 0.008210510075854922 0.06689751714067727 0.9901559767364733
0.04415876519487889 -0.015003951591302528 0.4433578437358857 -0.09808540533461234 0.040239839845765214 0.26776054802675936 -0.14100196976227886 -0.13357202360304654
1.0204081632653061 0.13576237685703282 -0.01642960722235746 0.036294865020915106 0.5741663401405557 -0.1683642900720536 0.12873490066238272 0.9383335293710643
-0.15370499992791015 0.1445521542548658 0.09667208133309832 0.04274148874773155 0.12952084646476134 0.1002252700852987 0.05172148963420876 0.13576237685703282
1.0204081632653061 -0.1378154531002857 -0.03761276562495429 -0.10262722290354491 0.6555885989974812 0.030518720105634407 -0.14843093986772457 0.9461346334788039
0.07603462304688076 0.014250029836631877 0.14372190720677208 0.11147970113506843 -0.017856072371672464 -0.0696588750092178 -0.01642960722235746 -0.1378154531002857
1.0204081632653064
00000000: 13bc 9c82 9753 f03f 45a8 15a4 9b8a 7b3f
00000010: e5ad 0c04 9ad6 973f 672f a2af 8746 e23f
00000020: 7802 c7a7 cae4 a4bf 7a27 c825 1f4b 813f
00000030: 9b8d 5346 6e27 76bf 4f06 5390 37d1 cbbf
00000040: 31b2 6f24 1924 b83f 82f8 f1e6 077c 863f
00000050: b239 64a8 0e2b cfbf 9ddf f95a d41f ab3f
00000060: 27ce 230d afbf e33f f71c 8e94 3d95 a23f
00000070: bee6 8afc fa41 a3bf 45a8 15a4 9b8a 7b3f
00000080: 16bc 9c82 9753 f03f 1794 86b2 8ca6 dabf
00000090: 7c75 c51d 6f26 843f 3dce 8cd4 ffe1 e03f
000000a0: d9e9 3bd2 4ea7 bdbf a05f 8218 2a08 a93f
000000b0: c0f6 d385 0014 c2bf 73c5 492a c456 c33f
000000c0: ee98 149a 3434 bd3f 562b 5bf5 a13d a4bf
000000d0: d23b 68b8 386b c33f f7fe 1202 acd0 803f
000000e0: 30c4 ab16 925f e23f 9bce 0c16 c745 babf
000000f0: e5ad 0c04 9ad6 973f 1794 86b2 8ca6 dabf
00000100: 15bc 9c82 9753 f03f 2cab 9227 a536 bf3f
00000110: ecd1 03af 49ba ccbf 48ea 20c8 c0ff e33f
00000120: 1459 f5dc d5ad c83f 3fa9 524d a7a5 74bf
00000130: 4147 ed97 2181 c6bf e951 0fc5 e3b2 c83f
00000140: 3371 979a 6685 a4bf fff9 cf75 b26e cbbf
00000150: d884 4d18 3220 b13f b63c d607 f68c c5bf
00000160: 7463 0af1 94fa e43f 672f a2af 8746 e23f
00000170: 7c75 c51d 6f26 843f 2cab 9227 a536 bf3f
00000180: 13bc 9c82 9753 f03f 8b22 6b68 8192 a13f
00000190: fa01 af47 8bb6 a53f 17f8 bdac f0e2 e23f
000001a0: e511 6606 9108 b6bf 6b29 fbdc 998c b73f
000001b0: bd99 005a a5ac dc3f fea9 bbc5 b864 c2bf
000001c0: 4d80 6d6e 7425 b5bf f5b4 4096 5baf ef3f
000001d0: 6570 199e 627a c03f e5f1 13a3 4c40 9f3f
000001e0: 7802 c7a7 cae4 a4bf 3dce 8cd4 ffe1 e03f
000001f0: ecd1 03af 49ba ccbf 8b22 6b68 8192 a13f
00000200: 13bc 9c82 9753 f03f 549f a396 823c c3bf
00000210: 4d8b f31b 485b c23f d8bc 962a 6ee1 db3f
00000220: 95e6 7eb1 174e b03f 3da3 0531 76af bc3f
00000230: 8b6f caf6 f103 dc3f 42a1 1675 8f61 b23f
00000240: baff af48 fa9b a63f 7f72 ac09 d406 ee3f
00000250: 4724 39f8 c8ff c2bf 7a27 c825 1f4b 813f
00000260: d9e9 3bd2 4ea7 bdbf 48ea 20c8 c0ff e33f
00000270: fa01 af47 8bb6 a53f 549f a396 823c c3bf
00000280: 13bc 9c82 9753 f03f a3f0 92f6 b8a2 b53f
00000290: 9634 4cd0 675f 873f 6d7b c87d 27da d93f
000002a0: 5660 e83b c2bb c13f 8a8b 088a fd81 a6bf
000002b0: 7dc5 f250 40cf ce3f 83cd 294b 64ba 8ebf
000002c0: f205 f6fd 9aac c3bf ecf0 8c23 bc46 ee3f
000002d0: 9b8d 5346 6e27 76bf a05f 8218 2a08 a93f
000002e0: 1459 f5dc d5ad c83f 17f8 bdac f0e2 e23f
000002f0: 4d8b f31b 485b c23f a3f0 92f6 b8a2 b53f
00000300: 14bc 9c82 9753 f03f 83a3 2c93 0709 bd3f
00000310: 037c 0025 41b7 af3f 2138 9690 f962 ed3f
00000320: cd8f 7622 ee5f 73bf ba69 03ff cc40 a6bf
00000330: 4653 d193 f95f dc3f c1a5 8b5b af80 c23f
00000340: 459c 594b 0177 b33f 4f06 5390 37d1 cbbf
00000350: c0f6 d385 0014 c2bf 3fa9 524d a7a5 74bf
00000360: e511 6606 9108 b6bf d8bc 962a 6ee1 db3f
00000370: 9634 4cd0 675f 873f 83a3 2c93 0709 bd3f
00000380: 12bc 9c82 9753 f03f 4f46 ff42 e776 94bf
00000390: f637 b554 6b92 9f3f ad5b bd12 04bb ed3f
000003a0: 2eda 4123 9c55 a7bf 4387 2008 201c b9bf
000003b0: 7e0c c363 80bf b83f e340 eca0 1e2f 8d3f
000003c0: 31b2 6f24 1924 b83f 73c5 492a c456 c33f
000003d0: 4147 ed97 2181 c6bf 6b29 fbdc 998c b73f
000003e0: 95e6 7eb1 174e b03f 6d7b c87d 27da d93f
000003f0: 037c 0025 41b7 af3f 4f46 ff42 e776 94bf
00000400: 15bc 9c82 9753 f03f fc04 eab0 af38 b03f
00000410: 7dc3 e6f8 60ee adbf fae8 8d53 b111 ed3f
00000420: 9586 44f8 509a a43f 022d b560 36e2 a53f
00000430: 9efe 95bd 7a65 c23f 82f8 f1e6 077c 863f
00000440: ee98 149a 3434 bd3f e951 0fc5 e3b2 c83f
00000450: bd99 005a a5ac dc3f 3da3 0531 76af bc3f
00000460: 5660 e83b c2bb c13f 2138 9690 f962 ed3f
00000470: f637 b554 6b92 9f3f fc04 eab0 af38 b03f
00000480: 16bc 9c82 9753 f03f 5e08 ea1e 4af0 b1bf
00000490: e1a9 26d0 9575 9a3f 25c6 3b23 fd22 d13f
000004a0: 93b2 db9b 2394 c03f 4700 8b06 ef89 bc3f
000004b0: b239 64a8 0e2b cfbf 562b 5bf5 a13d a4bf
000004c0: 3371 979a 6685 a4bf fea9 bbc5 b864 c2bf
000004d0: 8b6f caf6 f103 dc3f 8a8b 088a fd81 a6bf
000004e0: cd8f 7622 ee5f 73bf ad5b bd12 04bb ed3f
000004f0: 7dc3 e6f8 60ee adbf 5e08 ea1e 4af0 b1bf
00000500: 15bc 9c82 9753 f03f 918c c213 7b3d b1bf
00000510: 0879 6640 5a0c c2bf a9c6 3f01 5da8 b93f
00000520: 2e41 7cbb dc48 92bf 9ddf f95a d41f ab3f
00000530: d23b 68b8 386b c33f fff9 cf75 b26e cbbf
00000540: 4d80 6d6e 7425 b5bf 42a1 1675 8f61 b23f
00000550: 7dc5 f250 40cf ce3f ba69 03ff cc40 a6bf
00000560: 2eda 4123 9c55 a7bf fae8 8d53 b111 ed3f
00000570: e1a9 26d0 9575 9a3f 918c c213 7b3d b1bf
00000580: 13bc 9c82 9753 f03f 5c8f 8458 e318 c1bf
00000590: b16a f534 3d7b aa3f 146e 0afe 29d5 b1bf
000005a0: 27ce 230d afbf e33f f7fe 1202 acd0 803f
000005b0: d884 4d18 3220 b13f f5b4 4096 5baf ef3f
000005c0: baff af48 fa9b a63f 83cd 294b 64ba 8ebf
000005d0: 4653 d193 f95f dc3f 4387 2008 201c b9bf
000005e0: 9586 44f8 509a a43f 25c6 3b23 fd22 d13f
000005f0: 0879 6640 5a0c c2bf 5c8f 8458 e318 c1bf
00000600: 15bc 9c82 9753 f03f 4f68 505c a960 c13f
00000610: 2b19 d346 ecd2 90bf f71c 8e94 3d95 a23f
00000620: 30c4 ab16 925f e23f b63c d607 f68c c5bf
00000630: 6570 199e 627a c03f 7f72 ac09 d406 ee3f
00000640: f205 f6fd 9aac c3bf c1a5 8b5b af80 c23f
00000650: 7e0c c363 80bf b83f 022d b560 36e2 a53f
00000660: 93b2 db9b 2394 c03f a9c6 3f01 5da8 b93f
00000670: b16a f534 3d7b aa3f 4f68 505c a960 c13f
00000680: 15bc 9c82 9753 f03f b67d f9cf efa3 c1bf
00000690: bee6 8afc fa41 a3bf 9bce 0c16 c745 babf
000006a0: 7463 0af1 94fa e43f e5f1 13a3 4c40 9f3f
000006b0: 4724 39f8 c8ff c2bf ecf0 8c23 bc46 ee3f
000006c0: 459c 594b 0177 b33f e340 eca0 1e2f 8d3f
000006d0: 9efe 95bd 7a65 c23f 4700 8b06 ef89 bc3f
000006e0: 2e41 7cbb dc48 92bf 146e 0afe 29d5 b1bf
000006f0: 2b19 d346 ecd2 90bf b67d f9cf efa3 c1bf
00000700: 16bc 9c82 9753 f03f

threshold f8 []
6.447620619761208
00000000: fe8e 4b0f 5dca 1940
