models/mahalonobis_model.npz (npz, 2674 bytes, 3 tensors)

mu f8 [1, 15]
00000000: 5b37 4737 c809 c3bf de7b ced5 ff5d a4bf
00000010: 0a33 9096 5c9b bfbf 0a20 d504 1e07 d03f
00000020: e795 d042 09f0 b13f 5ca0 430c 2ab7 bbbf
00000030: cd4f dcb8 4198 a73f a1df c239 8f9a 81bf
00000040: 24f8 0302 fa95 b63f 11de 56f8 3d05 9cbf
00000050: e456 501f e3d8 abbf adcd 332e 1f68 be3f
00000060: 488f ae00 c5a7 943f 5274 7c56 1df7 6abf
00000070: 0361 9f4c 5ef5 bbbf
-0.14873602580194753 -0.03977965817397665 -0.12346438098775195 0.25043440315175813 0.07006891137333292 -0.10826361464899165 0.04608350164031059 -0.008595580053551379
0.08822596120077769 -0.027363746912412227 -0.05438909299134112 0.11877627256381258 0.020171240011804842 -0.0032916615490550605 -0.10921277399700462

cov f8 [15, 15]
00000000: 4b9e 725c 57df e13f 0c64 5310 f1d6 acbf
00000010: fb76 042b 0eb5 c13f 460f 2b40 9237 cbbf
00000020: 65f3 ee70 b227 bcbf 9c76 eca2 a61f acbf
00000030: 5e42 181c d9e7 643f 051d 51f4 57e3 be3f
00000040: d797 4141 faf8 9d3f b54b 2a6b 454e aabf
00000050: a402 d383 88b7 3f3f c927 24af 09d9 c93f
00000060: 2a22 4c92 2958 c4bf 43d3 b702 2005 c3bf
00000070: b244 7d21 4a46 c0bf 0c64 5310 f1d6 acbf
00000080: 78b1 babb b1e2 e23f 35ef c77a 6b4d bfbf
00000090: 65f1 e635 732d b83f 2add 802d 9bc3 8fbf
000000a0: d87b caad 6cc8 b13f e9c8 307a df48 92bf
000000b0: 6166 deff 1f96 863f e39f 22da 25ad 70bf
000000c0: b146 cfa1 b993 c63f 11f7 2852 b356 70bf
000000d0: 294b f22e a7dd a43f f18c d87f 03e9 773f
000000e0: 1c77 f04e e9d9 93bf 410b baf0 469f 9c3f
000000f0: fb76 042b 0eb5 c13f 35ef c77a 6b4d bfbf
00000100: b476 4809 308e df3f 586e 49b4 b586 733f
00000110: d651 5422 80c7 9a3f 2129 5a7c 1ee6 8a3f
00000120: f3e0 872c 04aa 913f 3f58 1d3c c288 4e3f
00000130: 693f 1474 4279 b83f b2a7 7b99 f3ea a93f
00000140: 76d4 7d5b 6817 a23f 32f9 01b9 87e5 b43f
00000150: 8251 11a6 1214 b8bf c340 be9b 5f7d a4bf
00000160: 4ce6 e9b9 94e5 abbf 460f 2b40 9237 cbbf
00000170: 65f1 e635 732d b83f 586e 49b4 b586 733f
00000180: 4da9 67df 5dfd f13f f650 3ea3 4db5 8e3f
00000190: fca1 f712 dfdb c03f c084 a663 bd3a 963f
000001a0: b4cd 23d2 3b07 b0bf c2d3 19bf a8f2 babf
000001b0: bfaa 4a9c 4849 c03f 2e67 02f6 a096 99bf
000001c0: f6d4 41cf 0a2e c8bf 241c 7452 7266 e83f
000001d0: 8159 984e 86a2 933f 6f17 1e35 d27d c43f
000001e0: 65f3 ee70 b227 bcbf 2add 802d 9bc3 8fbf
000001f0: d651 5422 80c7 9a3f f650 3ea3 4db5 8e3f
00000200: 546a 6501 4a5d e33f 688f 5c11 a186 85bf
00000210: 428e cc0c 7065 b43f cb12 3c34 21fe 8c3f
00000220: 15c5 e404 ea85 6f3f a39c 0a98 54fb 923f
00000230: 0210 f191 0ffc b73f 8b30 cffc 5fef a9bf
00000240: ff08 7afb baa5 b63f 0059 3312 5b37 e23f
00000250: f112 d114 46df ad3f 9c76 eca2 a61f acbf
00000260: d87b caad 6cc8 b13f 2129 5a7c 1ee6 8a3f
00000270: fca1 f712 dfdb c03f 688f 5c11 a186 85bf
00000280: 2d33 1bdb 312c df3f 4d37 322b ac94 95bf
00000290: 459f 8e00 f568 acbf c5e0 e061 bde3 babf
000002a0: c6cb 2782 1785 93bf 56f9 1549 2fda 9dbf
000002b0: 6345 78b3 1c9c bfbf d326 d32b 0725 c43f
000002c0: 0424 1fc8 b238 a03f 9e80 3223 daf4 e03f
000002d0: 5e42 181c d9e7 643f e9c8 307a df48 92bf
000002e0: f3e0 872c 04aa 913f c084 a663 bd3a 963f
000002f0: 428e cc0c 7065 b43f 4d37 322b ac94 95bf
00000300: ce53 94c3 5a50 e33f 46bd 216f bdfa c2bf
00000310: 892b c642 f6a3 a43f a04e 5943 b57c bb3f
00000320: e05d 1b47 1e7c b2bf 1f7f 5b08 c4d5 abbf
00000330: 49bf 498d 231b a9bf 9c64 9550 e078 b13f
00000340: 7051 c5a8 f9a2 97bf 051d 51f4 57e3 be3f
00000350: 6166 deff 1f96 863f 3f58 1d3c c288 4e3f
00000360: b4cd 23d2 3b07 b0bf cb12 3c34 21fe 8c3f
00000370: 459f 8e00 f568 acbf 46bd 216f bdfa c2bf
00000380: fd48 b6e4 31ef db3f 7a45 648b fc7f c43f
00000390: 0197 49b2 6a5d 98bf fda1 8f2f bd68 88bf
000003a0: 7f62 a4c0 4a0b c23f 1dc1 c935 34c8 90bf
000003b0: b4d6 6e9f 9ae4 74bf dc27 4b0e 3e36 b7bf
000003c0: d797 4141 faf8 9d3f e39f 22da 25ad 70bf
000003d0: 693f 1474 4279 b83f c2d3 19bf a8f2 babf
000003e0: 15c5 e404 ea85 6f3f c5e0 e061 bde3 babf
000003f0: 892b c642 f6a3 a43f 7a45 648b fc7f c43f
00000400: 2026 3feb 1f91 e73f e029 e9d5 0c39 743f
00000410: d652 091c 44aa 8c3f 25eb 586c ec8e c63f
00000420: c013 8516 0245 c0bf 91ac ddb2 b190 a2bf
00000430: f9d9 8a6d 6118 c5bf b54b 2a6b 454e aabf
00000440: b146 cfa1 b993 c63f b2a7 7b99 f3ea a93f
00000450: bfaa 4a9c 4849 c03f a39c 0a98 54fb 923f
00000460: c6cb 2782 1785 93bf a04e 5943 b57c bb3f
00000470: 0197 49b2 6a5d 98bf e029 e9d5 0c39 743f
00000480: c1fa c03e c341 e23f a6ac af42 1f54 b43f
00000490: 6914 e8c3 d9c7 a93f 8c66 5c4e 6c6a bcbf
000004a0: 7ed4 fc9a 0192 a1bf c1f3 db16 37e4 afbf
000004b0: a402 d383 88b7 3f3f 11f7 2852 b356 70bf
000004c0: 76d4 7d5b 6817 a23f 2e67 02f6 a096 99bf
000004d0: 0210 f191 0ffc b73f 56f9 1549 2fda 9dbf
000004e0: e05d 1b47 1e7c b2bf fda1 8f2f bd68 88bf
000004f0: d652 091c 44aa 8c3f a6ac af42 1f54 b43f
00000500: 8288 0580 6d79 dd3f fe4b 4a15 b186 ab3f
00000510: 75ac 5e71 afbd b1bf 0745 9183 56a2 b5bf
00000520: d8ed 33ea 5c7c b7bf c927 24af 09d9 c93f
00000530: 294b f22e a7dd a43f 32f9 01b9 87e5 b43f
00000540: f6d4 41cf 0a2e c8bf 8b30 cffc 5fef a9bf
00000550: 6345 78b3 1c9c bfbf 1f7f 5b08 c4d5 abbf
00000560: 7f62 a4c0 4a0b c23f 25eb 586c ec8e c63f
00000570: 6914 e8c3 d9c7 a93f fe4b 4a15 b186 ab3f
00000580: 908d 0bbf 4903 e13f ca33 5d10 6b1e c8bf
00000590: dd30 e24c e841 b9bf 2f41 54f3 fc64 d1bf
000005a0: 2a22 4c92 2958 c4bf f18c d87f 03e9 773f
000005b0: 8251 11a6 1214 b8bf 241c 7452 7266 e83f
000005c0: ff08 7afb baa5 b63f d326 d32b 0725 c43f
000005d0: 49bf 498d 231b a9bf 1dc1 c935 34c8 90bf
000005e0: c013 8516 0245 c0bf 8c66 5c4e 6c6a bcbf
000005f0: 75ac 5e71 afbd b1bf ca33 5d10 6b1e c8bf
00000600: 3d7a 12a6 f7a0 e93f 6857 b455 26eb cf3f
00000610: ba28 3cf0 690a d53f 43d3 b702 2005 c3bf
00000620: 1c77 f04e e9d9 93bf c340 be9b 5f7d a4bf
00000630: 8159 984e 86a2 933f 0059 3312 5b37 e23f
00000640: 0424 1fc8 b238 a03f 9c64 9550 e078 b13f
00000650: b4d6 6e9f 9ae4 74bf 91ac ddb2 b190 a2bf
00000660: 7ed4 fc9a 0192 a1bf 0745 9183 56a2 b5bf
00000670: dd30 e24c e841 b9bf 6857 b455 26eb cf3f
00000680: f0c7 8db0 c745 e73f df65 e1d0 ec18 cd3f
00000690: b244 7d21 4a46 c0bf 410b baf0 469f 9c3f
000006a0: 4ce6 e9b9 94e5 abbf 6f17 1e35 d27d c43f
000006b0: f112 d114 46df ad3f 9e80 3223 daf4 e03f
000006c0: 7051 c5a8 f9a2 97bf dc27 4b0e 3e36 b7bf
000006d0: f9d9 8a6d 6118 c5bf c1f3 db16 37e4 afbf
000006e0: d8ed 33ea 5c7c b7bf 2f41 54f3 fc64 d1bf
000006f0: ba28 3cf0 690a d53f df65 e1d0 ec18 cd3f
00000700: 2edf e076 1d45 e73f
0.5585133367175755 -0.05632737468994983 0.13833787060223543 -0.21263340123379687 -0.10998072869456406 -0.05492897738279831 0.0025519600319586075 0.12065648760573218
0.02927008651058557 -0.05137841160935556 0.0004839618957923986 0.20193596889322254 -0.15894050258090547 -0.14859390385358937 -0.12714506755086102 -0.05632737468994983
0.5901726404750169 -0.12227508304198127 0.09444351259202717 -0.015509807897713463 0.069464485577995 -0.01785611327449824 0.01102852820968109 -0.004071376666765022
0.17638321305144225 -0.003988934013760007 0.04075357864453217 0.005837453526996259 -0.019385953372071815 0.027951343958658063 0.13833787060223543 -0.12227508304198127
0.4930534449248214 0.004767141134461271 0.026151659102724732 0.01313422982208984 0.017250123231833347 0.0009318302547665149 0.09560027440988751 0.05062066315242876
0.03533483616676218 0.08162735239782107 -0.09405628733049379 -0.040019023667925 -0.05448593873456939 -0.21263340123379687 0.09444351259202717 0.004767141134461271
1.1243571020846332 0.014994246048253928 0.13170994211328935 0.021708449561292253 -0.06261037712447753 -0.10526518502758989 0.12723643905095192 -0.02498866559526574
-0.18890509719827947 0.7625056848927483 0.01917466978746907 0.16008975595121508 -0.10998072869456406 -0.015509807897713463 0.026151659102724732 0.014994246048253928
0.6051378276127459 -0.010510691015560972 0.07967281639553739 0.014156588942122813 0.0038480349241117964 0.018536874561189475 0.09368989289311005 -0.05065441094447561
0.0884663452107226 0.5692572932701125 0.05834406856641817 -0.05492897738279831 0.069464485577995 0.01313422982208984 0.13170994211328935 -0.010510691015560972
0.4870724334439725 -0.021074953209385062 -0.05548825866509203 -0.10503753318414784 -0.019062392539080063 -0.02915262111263791 -0.1234758318098748 0.15738000526316984
0.03168257420436052 0.5298891723105219 0.0025519600319586075 -0.01785611327449824 0.017250123231833347 0.021708449561292253 0.07967281639553739 -0.021074953209385062
0.603558904639266 -0.1482769768367495 0.04031343045342967 0.10737164396533183 -0.07220639453895883 -0.054365278263274634 -0.049035178181724044 0.06825067489025333
-0.023082638669920497 0.12065648760573218 0.01102852820968109 0.0009318302547665149 -0.06261037712447753 0.014156588942122813 -0.05548825866509203 -0.1482769768367495
0.43647429785882236 0.16015583807215333 -0.023793856746485712 -0.011918523801754505 0.14096960455278304 -0.016388717444386736 -0.005100826258901559 -0.0906714234253338
0.02927008651058557 -0.004071376666765022 0.09560027440988751 -0.10526518502758989 0.0038480349241117964 -0.10503753318414784 0.04031343045342967 0.16015583807215333
0.7364654154454833 0.004937219752330496 0.013996631723025937 0.17623667993924488 -0.12710596179581835 -0.03626017864629561 -0.16480653618573607 -0.05137841160935556
0.17638321305144225 0.05062066315242876 0.12723643905095192 0.018536874561189475 -0.019062392539080063 0.10737164396533183 -0.023793856746485712 0.004937219752330496
0.5705276704464596 0.07940860155183546 0.05035286442220228 -0.11099888718708878 -0.03431706444681824 -0.06228801874201607 0.0004839618957923986 -0.003988934013760007
0.03533483616676218 -0.02498866559526574 0.09368989289311005 -0.02915262111263791 -0.07220639453895883 -0.011918523801754505 0.013996631723025937 0.07940860155183546
0.4605363607607914 0.053761991356758174 -0.06930061834161612 -0.08450833046051197 -0.09174137800066917 0.20193596889322254 0.04075357864453217 0.08162735239782107
-0.18890509719827947 -0.05065441094447561 -0.1234758318098748 -0.054365278263274634 0.14096960455278304 0.17623667993924488 0.05035286442220228 0.053761991356758174
0.5316513758993313 -0.18842829035784653 -0.09866191746749871 -0.27178882372483576 -0.15894050258090547 0.005837453526996259 -0.09405628733049379 0.7625056848927483
0.0884663452107226 0.15738000526316984 -0.049035178181724044 -0.016388717444386736 -0.12710596179581835 -0.11099888718708878 -0.06930061834161612 -0.18842829035784653
0.8008993381116124 0.2493637007216265 0.32876060924958106 -0.14859390385358937 -0.019385953372071815 -0.040019023667925 0.01917466978746907 0.5692572932701125
0.03168257420436052 0.06825067489025333 -0.005100826258901559 -0.03626017864629561 -0.03431706444681824 -0.08450833046051197 -0.09866191746749871 0.2493637007216265
0.7272680710141213 0.2273231525348782 -0.12714506755086102 0.027951343958658063 -0.05448593873456939 0.16008975595121508 0.05834406856641817 0.5298891723105219
-0.023082638669920497 -0.0906714234253338 -0.16480653618573607 -0.06228801874201607 -0.09174137800066917 -0.27178882372483576 0.32876060924958106 0.2273231525348782
0.7271869012683732

threshold f8 []
00000000: fdc1 d3bf 651b 1b40
6.77675533037154
