models/mahalonobis_model.npz (npz, 9772 bytes, 3 tensors)

mu f8 [30]
000000 7b 14 ae 47 e1 7a 74 3c 00 00 00 00 00 00 98 bc
       1.7763568394002505e-17 -8.326672684688674e-17
000010 9a 99 99 99 99 99 69 bc b8 1e 85 eb 51 b8 ce bc
       -1.1102230246251566e-17 -8.526512829121202e-16
000020 ae 47 e1 7a 14 ae e7 3c e1 7a 14 ae 47 81 ea 3c
       2.6290081223123707e-15 2.9426461267689773e-15
000030 f6 28 5c 8f c2 f5 80 bc 7b 14 ae 47 e1 7a 84 3c
       -2.942091015256665e-17 3.552713678800501e-17
000040 b8 1e 85 eb 51 b8 7e bc b8 1e 85 eb 51 b8 6e 3c
       -2.6645352591003756e-17 1.3322676295501878e-17
000050 d7 a3 70 3d 0a d7 a3 bc 7b 14 ae 47 e1 7a 74 3c
       -1.376676550535194e-16 1.7763568394002505e-17
000060 71 3d 0a d7 a3 30 f0 3c ec 51 b8 1e 85 6b e8 bc
       3.594902153736257e-15 -2.7111646261346325e-15
000070 cd cc cc cc cc cc d5 3c ec 51 b8 1e 85 eb 91 bc
       1.2101430968414207e-15 -6.217248937900877e-17
000080 7b 14 ae 47 e1 7a 64 3c 0a d7 a3 70 3d 0a 91 bc
       8.881784197001253e-18 -5.911937606128958e-17
000090 48 e1 7a 14 ae 67 d8 bc e1 7a 14 ae 47 a1 e7 3c
       -1.3547496457988473e-15 2.6234570071892448e-15
0000a0 48 e1 7a 14 ae 87 e6 bc 66 66 66 66 66 66 bb bc
       -2.501332474480478e-15 -3.802513859341161e-16
0000b0 52 b8 1e 85 eb d1 dc bc 8f c2 f5 28 5c 0f e9 bc
       -1.5998313784848506e-15 -2.782218899710642e-15
0000c0 1f 85 eb 51 b8 de ed bc 48 e1 7a 14 ae 27 d5 3c
       -3.3162361745553427e-15 1.1743384042972594e-15
0000d0 ec 51 b8 1e 85 b3 e3 bc 52 b8 1e 85 eb 51 98 bc
       -2.1872781363896367e-15 -8.43769498715119e-17
0000e0 c3 f5 28 5c 8f c2 95 bc a4 70 3d 0a d7 a3 90 bc
       -7.549516567451065e-17 -5.773159728050814e-17

cov f8 [30, 30]
000000 15 bc 9c 82 97 53 f0 3f b5 03 c7 ce 6c dd 74 bf
       1.0204081632653061 -0.005093979864285216
000010 9e b0 7b 04 8b 01 c0 bf 40 c3 44 34 27 c1 d1 bf
       -0.12504708975700835 -0.27741413215976607
000020 6e 59 1a ee 8a f4 bb bf ad 9f 53 0b f7 03 a1 3f
       -0.10920017540988677 0.03323337567581972
000030 5f e1 23 ed 73 82 95 bf ec 20 29 c8 e9 b1 c2 bf
       -0.021005450581442427 -0.14605448029966028
000040 a6 98 6f c5 26 62 94 3f 05 22 35 10 74 17 97 3f
       0.019905668068439873 0.022550405015211456
000050 06 22 22 49 df 76 b6 3f 06 4c ec 3b d2 6f ae bf
       0.0877513459728406 -0.05944687825662957
000060 87 2a cf 52 42 e6 d2 bf 32 f1 99 d7 f5 5b c4 bf
       -0.2953038986858378 -0.1590564062825109
000070 11 c8 4e d8 27 f5 b1 3f 42 9b 28 8f 21 6a d1 bf
       0.07014702826452913 -0.272102727702464
000080 64 c8 3f 0e 1d 43 81 bf 54 5c 96 02 29 63 94 3f
       -0.008428790089940637 0.0199095161275092
000090 23 39 f5 ea 99 4b d1 bf 34 e7 51 73 7f d1 a9 bf
       -0.27023933358295177 -0.05042646677698173
0000a0 8b a0 0a 7c bb 76 a8 3f 86 2b a0 e4 6a e9 d5 bf
       0.04778085602930656 -0.3423716766998769
0000b0 64 d9 e1 a8 d6 3c 96 3f 71 dc 8d 71 00 c5 96 3f
       0.021716455514672175 0.022235876971049288
0000c0 68 e7 bf 82 af 2f d4 bf 91 12 97 db 54 45 a2 bf
       -0.3154104973651699 -0.03568520718139213
0000d0 d6 09 5c db a9 f1 a6 3f 13 56 34 e6 00 99 8a bf
       0.04481249621132448 -0.012987143540651258
0000e0 1d 90 8c ef 9e a5 bc bf 1f 5d 4c 31 c1 a4 97 bf
       -0.1119021735035521 -0.023089426645211405
0000f0 b5 03 c7 ce 6c dd 74 bf 14 bc 9c 82 97 53 f0 3f
       -0.005093979864285216 1.020408163265306
000100 6f c4 87 66 e4 72 b4 bf 86 3e 15 d9 fa f2 be 3f
       -0.0798781156843391 0.12089507865789004
000110 db fe 59 b3 38 63 c5 bf 48 76 3d 5e c9 e9 cd 3f
       -0.16709049947166119 0.2336971006542845
000120 4f 05 3c 32 bd 4f a7 bf f4 b4 2f 6d 55 25 d7 3f
       -0.04553023565496039 0.36165366804819077
000130 7d 83 c5 75 12 fd b9 3f fa 72 36 4b af 3e b7 bf
       0.10151782393724136 -0.09080024324653016
000140 c6 16 31 c9 b5 d3 8d bf 71 7c ac 69 c2 eb b2 bf
       -0.014563961222062171 -0.0739099033348667
000150 8b a9 5a 06 aa 2e c3 3f a4 b2 76 aa c5 42 c4 bf
       0.14986157713185508 -0.1582877237646204
000160 2c c0 9a fd 02 e8 cc 3f fc 94 a6 3d 6e 89 b5 3f
       0.22583043463737462 0.08412827496666248
000170 fc 81 2c cd f5 e9 c0 3f 0d a6 0f 1a 94 5c c5 3f
       0.13213989752058797 0.1668877722980117
000180 36 99 49 a4 28 66 c6 3f 4d 53 33 78 92 0d c8 bf
       0.174992637842658 -0.18791418904461424
000190 b2 48 7a c1 d3 d8 cd 3f 1a e4 6d 8a dd bc 96 bf
       0.2331795401301569 -0.022204839300204872
0001a0 3d 94 0c 1e 17 15 d5 bf 4c a0 0a 00 50 67 b2 3f
       -0.3294122498940089 0.07188892365468397
0001b0 6f 4c 6e f8 9d e6 c2 3f e6 cf 77 8f 36 39 cf bf
       0.14766287451184065 -0.24393350606226177
0001c0 f1 3a c5 b4 40 1f cb 3f a7 d7 27 65 29 a4 c5 3f
       0.21189125849419768 0.1690723174976345
0001d0 e8 7c d1 9e 31 1d ca bf 89 f0 0d 1a 65 9a a9 bf
       -0.20401592497635268 -0.05000606482551102
0001e0 9e b0 7b 04 8b 01 c0 bf 6f c4 87 66 e4 72 b4 bf
       -0.12504708975700835 -0.0798781156843391
0001f0 15 bc 9c 82 97 53 f0 3f 6d 5b 4b 7d c0 ad bb 3f
       1.0204081632653061 0.10811999377197674
000200 1c 3a 62 b5 f4 df c5 bf f0 47 f9 71 c9 a1 d5 3f
       -0.17089709145189225 0.33799968843697936
000210 81 e7 c6 fb 87 2f 9b bf b4 a7 a1 9b 69 2a cc 3f
       -0.026548504583594038 0.22004432772820126
000220 77 13 88 fc 32 a7 ae 3f f4 f5 e7 19 a3 0c cb bf
       0.05986937840137945 -0.21132315411516311
000230 9e 89 94 9d 3a ea 83 bf 72 a7 7f 82 65 90 b6 bf
       -0.009724100049940895 -0.0881408160782067
000240 38 3b a5 92 af 16 c2 3f fa e3 4d 11 28 78 bf bf
       0.14131731663152336 -0.12292719290225299
000250 30 59 9c 6c e9 41 d5 3f 52 83 25 95 ee e1 d3 bf
       0.33214793783681085 -0.3106647926816112
000260 fa 9d 58 91 e5 7b c0 3f 73 b1 09 f3 23 63 c0 bf
       0.12878102871876235 -0.12802552573283385
000270 24 5b 3c 0b 21 a2 c9 3f eb bd 90 ad 9a 9e c2 bf
       0.2002602867948663 -0.14546521639702745
000280 f0 92 f9 16 45 3b b9 3f d2 3a a2 1d 19 e1 86 bf
       0.09856063662443737 -0.011171528069352208
000290 06 23 64 48 9b 8e 9f bf cb 70 c9 71 99 b9 cc 3f
       -0.030817438405423857 0.22441404396057005
0002a0 c0 31 15 e6 03 92 c3 3f 81 19 11 69 b9 0e bf bf
       0.152893531174767 -0.12131842436892805
0002b0 4f f7 1a c7 cf 21 c4 3f a8 24 16 a5 e6 5b c7 bf
       0.15728184911670914 -0.1824920946203623
0002c0 99 0c e8 f1 c2 70 64 bf d9 9b 99 70 5a a7 ac bf
       -0.002495175124978721 -0.05596430420410287
0002d0 40 c3 44 34 27 c1 d1 bf 86 3e 15 d9 fa f2 be 3f
       -0.27741413215976607 0.12089507865789004
0002e0 6d 5b 4b 7d c0 ad bb 3f 15 bc 9c 82 97 53 f0 3f
       0.10811999377197674 1.0204081632653061
0002f0 9c cd 6b a4 1d ec b4 3f 68 8f 0e 89 28 f8 bc 3f
       0.08172784103572045 0.1131615957843316
000300 b8 45 fa 2a b3 38 75 bf e5 5f 35 91 2c 8b be 3f
       -0.00518102633908895 0.11931112809304485
000310 09 a5 c2 3b b1 d2 c2 3f ae 28 51 cd 69 a6 b8 3f
       0.14705481927857303 0.09628926527617196
000320 ce 46 60 5e 0a 53 bf bf a7 8e c6 ce 9e 88 b2 3f
       -0.1223608475122788 0.07239716099007386
000330 e1 e0 82 c7 9c fb ee 3f 05 f9 0c fb c4 82 bb 3f
       0.9682144066528303 0.10746413354079117
000340 d7 d6 24 f4 80 82 ab 3f 0e 71 d0 c8 fa 2f c3 3f
       0.05373003940841919 0.14990172200567325
000350 f1 8d bf 04 56 7f b2 3f 49 e8 b7 30 79 05 c5 bf
       0.07225549331592852 -0.16422953490092798
000360 07 4e 88 c8 de a9 e3 3f ba 19 f1 70 e4 63 bf 3f
       0.6144861141823988 0.122617986272508
000370 e7 ab 64 ac c4 5b a9 3f 71 1e 42 fd 32 fc e1 3f
       0.04952826122674719 0.5620360323382113
000380 d7 98 b5 99 38 4d ad 3f 0e a0 87 e7 56 22 ae bf
       0.05722977520308497 -0.05885573936740239
000390 fa ad 2d 59 0d 37 e5 3f 7a 2b 3b 44 2a 49 be 3f
       0.6629702321783377 0.11830391088294148
0003a0 8d 6a ba eb f7 a9 97 3f 87 07 ee d0 a2 76 84 bf
       0.02310931564589196 -0.009991905213386122
0003b0 82 93 28 9f a2 b7 be bf 03 ff 81 64 e7 c2 ba bf
       -0.1199895514078673 -0.10453649715236328
0003c0 6e 59 1a ee 8a f4 bb bf db fe 59 b3 38 63 c5 bf
       -0.10920017540988677 -0.16709049947166119
0003d0 1c 3a 62 b5 f4 df c5 bf 9c cd 6b a4 1d ec b4 3f
       -0.17089709145189225 0.08172784103572045
0003e0 14 bc 9c 82 97 53 f0 3f c7 06 75 84 a8 e8 bd bf
       1.020408163265306 -0.11683133348290219
0003f0 12 74 14 4d 16 11 af 3f 5e 0a 90 0a f8 14 b6 bf
       0.06067723933140469 -0.0862574601924648
000400 a0 73 e9 0a 63 05 cc bf ce 53 46 87 b3 39 b0 bf
       -0.2189143946915495 -0.06338045170407655
000410 a8 45 29 ed 6c b8 c6 bf 4f 7e b5 a7 24 d2 c6 3f
       -0.17750321941507008 0.17828806103624337
000420 54 70 e8 0e 33 d3 b5 3f fd 52 dd 62 7a 20 ef 3f
       0.0852538978001019 0.9727146082828707
000430 d4 77 30 6d c2 ec c9 bf 24 b6 ed e2 fb 06 87 3f
       -0.2025378258849161 0.011243789542017053
000440 43 ea ab 86 1d 5e ae 3f 42 7e 3b a4 43 c4 b0 bf
       0.0593117930311178 -0.06549475440578426
000450 c9 10 19 0b ea ab c3 bf f2 0b b8 8e 0f ae eb 3f
       -0.15368390600099804 0.8649976527671
000460 a7 27 de 0a d4 06 b9 bf 43 6d b3 6a 1f cf 79 bf
       -0.09776044144942252 -0.006301043245197593
000470 3a c4 95 ec 73 e7 dd 3f 25 0d 37 c1 94 7c b3 3f
       0.4672517595673217 0.07611970631755989
000480 e7 f9 9c 74 af 3b c1 bf 01 0e a3 81 cb aa ea 3f
       -0.13463395303729372 0.8333489925357186
000490 3c 87 eb 40 95 c1 a8 bf ff 90 8a 07 83 be ce 3f
       -0.048351921248253465 0.24018895977236096
0004a0 fd 37 e0 e0 40 4f ca 3f f7 64 91 e4 67 40 af bf
       0.20554362278238605 -0.061038252498017025
0004b0 ad 9f 53 0b f7 03 a1 3f 48 76 3d 5e c9 e9 cd 3f
       0.03323337567581972 0.2336971006542845
0004c0 f0 47 f9 71 c9 a1 d5 3f 68 8f 0e 89 28 f8 bc 3f
       0.33799968843697936 0.1131615957843316
0004d0 c7 06 75 84 a8 e8 bd bf 13 bc 9c 82 97 53 f0 3f
       -0.11683133348290219 1.0204081632653057
0004e0 ec e3 fe 2b 7b 1d 89 bf 85 f3 a5 d6 ee 26 c3 3f
       -0.012263262062207368 0.14962563973304213
0004f0 65 3a f9 28 e0 2c 7e 3f ec cf 2c b1 a9 aa b3 bf
       0.007367015481192317 -0.07682285857737242
000500 82 da d5 d4 89 14 c7 3f c5 05 98 08 70 c5 c1 bf
       0.1803142823443587 -0.13883781833287237
000510 30 47 c4 e1 19 f7 b9 3f 0d f1 12 a5 93 c2 c2 bf
       0.10142671357996558 -0.14656301079038095
000520 41 e6 73 a5 da 68 ed 3f e7 02 9c 7f cd e6 c8 bf
       0.9190495711802172 -0.19454354029587437
000530 7f 55 d9 cb 32 37 a9 3f 6c 3c 27 07 25 34 bc 3f
       0.04924925554648051 0.11017066406860615
000540 2c b3 34 28 5b d1 d8 3f f5 19 c1 65 78 6a b0 bf
       0.3877780811915723 -0.06412460788951775
000550 68 d7 c1 3b ac 16 dd 3f 84 3c 01 23 7f b9 a1 bf
       0.4545088370863284 -0.034618351958322996
000560 f5 3b 3a 3d 45 0f d1 bf b5 5b 91 8b a3 af d4 3f
       -0.26655703524823987 0.3232201445547916
000570 af 1e 9c aa 08 70 d4 3f d0 2d 79 62 7c 67 bd bf
       0.31933800374143123 -0.11486031917700434
000580 0f b3 e2 33 13 ab dd 3f 56 df 03 a3 f4 7e b7 3f
       0.463566589993932 0.09178093891011704
000590 69 96 21 de cc 99 bd bf 79 8f 90 5d c4 b7 77 bf
       -0.11562805579304726 -0.005790488293346268
0005a0 5f e1 23 ed 73 82 95 bf 4f 05 3c 32 bd 4f a7 bf
       -0.021005450581442427 -0.04553023565496039
0005b0 81 e7 c6 fb 87 2f 9b bf b8 45 fa 2a b3 38 75 bf
       -0.026548504583594038 -0.00518102633908895
0005c0 12 74 14 4d 16 11 af 3f ec e3 fe 2b 7b 1d 89 bf
       0.06067723933140469 -0.012263262062207368
0005d0 15 bc 9c 82 97 53 f0 3f 49 f6 41 5a 42 96 d5 bf
       1.0204081632653061 -0.33729609312272096
0005e0 b5 67 dd e4 49 fb a6 3f f2 89 17 4c 56 08 c4 3f
       0.044885930240254814 0.15650442805697612
0005f0 2b 71 e6 88 bc 27 ca bf 3a 18 aa 20 80 13 b8 bf
       -0.2043376606424173 -0.09404755399199952
000600 1a 8d 99 b1 60 eb a4 bf 65 85 2c 52 8a e7 c2 3f
       -0.040858289413131924 0.14769104969404193
000610 2e b6 e2 4a 5b e0 9a bf 65 44 57 0d c5 6c c7 3f
       -0.026246477552083806 0.1830068888798763
000620 92 67 33 ca e1 f8 ba bf b1 6a a9 33 07 e3 b7 bf
       -0.10536013781111667 -0.0933079243781474
000630 70 eb 38 54 86 a9 bf 3f 5c a1 b6 d1 cd 11 a0 bf
       0.12368049198350461 -0.03138583359697364
000640 2c 65 51 7d 21 61 b4 bf 07 4c 1d b0 c1 a7 b5 3f
       -0.07960709867019905 0.08459101247471788
000650 b3 ab b3 3f 7e d3 a0 3f af 18 86 e5 06 2b c2 bf
       0.03286356475458465 -0.14193807799546707
000660 19 dd f7 5b d1 aa bf 3f 2f 0b e1 43 5c 43 96 bf
       0.12370022292440232 -0.021741334574709
000670 4e 93 b8 8b b9 97 bd bf 5f ee 86 ed 09 e0 c1 3f
       -0.11559638653905077 0.13964962099076936
000680 47 97 d0 f7 7c 0f a0 bf 91 01 88 07 ff 75 91 bf
       -0.03136816525538549 -0.017051682314560394
000690 ec 20 29 c8 e9 b1 c2 bf f4 b4 2f 6d 55 25 d7 3f
       -0.14605448029966028 0.36165366804819077
0006a0 b4 a7 a1 9b 69 2a cc 3f e5 5f 35 91 2c 8b be 3f
       0.22004432772820126 0.11931112809304485
0006b0 5e 0a 90 0a f8 14 b6 bf 85 f3 a5 d6 ee 26 c3 3f
       -0.0862574601924648 0.14962563973304213
0006c0 49 f6 41 5a 42 96 d5 bf 16 bc 9c 82 97 53 f0 3f
       -0.33729609312272096 1.0204081632653064
0006d0 1f b7 28 b2 bb 42 c6 3f 34 90 ca f4 71 e0 ba bf
       0.17391153525516587 -0.10498726106976691
0006e0 a0 b8 18 13 6c f4 b9 3f 56 88 95 5e 8e 06 8e 3f
       0.10138583627915176 0.014660942327001585
0006f0 56 92 5b f9 28 d8 c7 3f db 2f f3 9c 2f 9b c2 bf
       0.18628418136281039 -0.14536090053149917
000700 ba 3b 6e 1d 0b e7 b8 3f c3 ff 55 89 79 e4 ca 3f
       0.0972754427768753 0.2100974960885634
000710 45 d2 96 b7 f3 f4 8f 3f b9 48 31 f3 7f c7 a8 3f
       0.01560392765063868 0.04839706271799699
000720 4a 4e d3 c5 72 dc d0 3f 8a bc 44 e2 e6 12 97 bf
       0.26345509833229086 -0.022533042488416068
000730 23 3f 9d bf 9a 6e c3 3f d8 a6 74 93 6a cd b7 3f
       0.15181288105167665 0.09297815418235744
000740 7e bf 86 e5 cf 14 c5 bf 10 67 31 56 c1 e4 c6 3f
       -0.16469763476697702 0.1788560553421168
000750 52 48 e6 4e e3 12 cf 3f 30 0d be 26 8a df a8 bf
       0.24276391365543987 -0.048580472211165904
000760 32 25 e6 cb f1 68 c8 3f ba af 51 a4 89 d6 53 bf
       0.1907026525116549 -0.001210817733659815
000770 84 29 78 d8 c1 47 c3 bf 87 eb 2d d8 24 d9 ba bf
       -0.15062735624117007 -0.10487585332695747
000780 a6 98 6f c5 26 62 94 3f 7d 83 c5 75 12 fd b9 3f
       0.019905668068439873 0.10151782393724136
000790 77 13 88 fc 32 a7 ae 3f 09 a5 c2 3b b1 d2 c2 3f
       0.05986937840137945 0.14705481927857303
0007a0 a0 73 e9 0a 63 05 cc bf 65 3a f9 28 e0 2c 7e 3f
       -0.2189143946915495 0.007367015481192317
0007b0 b5 67 dd e4 49 fb a6 3f 1f b7 28 b2 bb 42 c6 3f
       0.044885930240254814 0.17391153525516587
0007c0 13 bc 9c 82 97 53 f0 3f 61 26 b6 6c ad 24 c4 3f
       1.0204081632653057 0.15736930664234008
0007d0 82 0d b8 8b b6 a5 d3 3f f6 0c aa 15 8b 01 75 bf
       0.3069893230860644 -0.005128424929924371
0007e0 45 40 39 52 06 11 c1 3f fa a8 04 98 d0 03 d4 bf
       0.13333205237222692 -0.3127328381111877
0007f0 54 8f f7 70 b3 4d a0 3f 89 4c 25 f3 6b de bb 3f
       0.03184281114570689 0.10886263548063559

threshold f8 []
000000 46 02 9b 22 f6 b9 2c 40
       14.363205987379057
