models/mahalonobis_model.npz (npz, 8194 bytes, 3 tensors)

mu f8 [30]
0	0xbce23d70a3d70a3d	-2.0250467969162854e-15
1	0xbcfad70a3d70a3d7	-5.95967719618784e-15
2	0x3cdaf5c28f5c28f6	1.496580637194711e-15
3	0x3cd23d70a3d70a3d	1.0125233984581427e-15
4	0xbcd147ae147ae148	-9.592326932761353e-16
5	0x3cdf0a3d70a3d70a	1.723066134218243e-15
6	0xbc70a3d70a3d70a4	-1.4432899320127036e-17
7	0x3cbafae147ae147b	3.7442271505483405e-16
8	0x3cc8cccccccccccd	6.883382752675971e-16
9	0x3ca0f5c28f5c28f6	1.176836406102666e-16
10	0x3ca2e147ae147ae1	1.3100631690576846e-16
11	0xbc7eb851eb851eb8	-2.6645352591003756e-17
12	0xbcb3333333333333	-2.6645352591003756e-16
13	0x3cd70a3d70a3d70a	1.2789769243681803e-15
14	0xbcef666666666666	-3.4861002973229914e-15
15	0x3c91eb851eb851ec	6.217248937900877e-17
16	0x0000000000000000	0.0
17	0x3c7eb851eb851eb8	2.6645352591003756e-17
18	0x3cb51eb851eb851f	2.9309887850104134e-16
19	0xbcd6f33333333333	-1.273980920757367e-15
20	0x3cb6e147ae147ae1	3.1752378504279476e-16
21	0x3cd4f5c28f5c28f6	1.1635137298071641e-15
22	0x3cd1eb851eb851ec	9.947598300641404e-16
23	0xbce6051eb851eb85	-2.4447111002245947e-15
24	0xbcd55c28f5c28f5c	-1.1857181902996672e-15
25	0xbcbfae147ae147ae	-4.39648317751562e-16
26	0x3cc28f5c28f5c28f	5.151434834260726e-16
27	0x0000000000000000	0.0
28	0x0000000000000000	0.0
29	0x0000000000000000	0.0

cov f8 [30, 30]
0	0x3ff05397829cbc18	1.0204081632653068
1	0x3fb3851de5ff3774	0.07624995103034654
2	0xbfcc2ba6eac534c9	-0.22008215392489763
3	0x3fe52c0cae145dda	0.661627140044341
4	0xbfaef21071b3dbec	-0.060440553550442505
5	0xbfcdb7c6cc47a881	-0.2321709153614542
6	0xbfb86ec0f537a3a0	-0.09543996798278309
7	0xbfc7bdd8f17661f2	-0.1854811839118749
8	0xbfcae463fc1b0241	-0.21009492692793866
9	0x3faadd0e9be3a227	0.05246778157181025
10	0xbfcb33d0574edd3b	-0.21251873267258667
11	0xbfcfc2ebbddcdd15	-0.24813601275102629
12	0x3fe24a6cf076d6ab	0.571585149437586
13	0xbf9f503491c8716a	-0.03057939662731838
14	0xbfbdacee72402634	-0.1159199742252433
15	0xbfc0ef769a6650d0	-0.13230783976599136
16	0xbf67a1598a823b2e	-0.002884554753172528
17	0xbf7b5e2c30a94acf	-0.006681606881630399
18	0x3fdbbd80df2e5b21	0.4334413699629512
19	0xbf9344bef90fc327	-0.018816932631980834
20	0xbfba49a776fe168a	-0.10268637328234767
21	0x3fe184c158376c0f	0.5474554751375552
22	0xbfa31310652ad413	-0.037254822110675566
23	0xbfb48c69fcea2527	-0.08026754784272737
24	0x3fe0d751b3129d8f	0.5262840745462415
25	0xbfa302eacbef7045	-0.0371316312736956
26	0xbfb9de32c241db90	-0.10104672663315584
27	0x0000000000000000	0.0
28	0x0000000000000000	0.0
29	0x0000000000000000	0.0
30	0x3fb3851de5ff3774	0.07624995103034654
31	0x3ff05397829cbc15	1.0204081632653061
32	0xbfa59d3ec6466676	-0.04221531076764233
33	0x3faaa63e122efcae	0.05204957935301856
34	0x3fe01e5f53e6e5ee	0.5037075651845819
35	0xbfbbdebff93a4e72	-0.10886764368688676
36	0x3fbfd81c1e924290	0.12439132448549572
37	0xbfbf8e0303b2eaf7	-0.12326067772202608
38	0xbfb277892125adbf	-0.07213646945245154
39	0xbf82ca5c77d6b4ad	-0.009175035865008086
40	0xbfad8a5e94381cf0	-0.05769630011860183
41	0xbfcb1159dcf8e961	-0.21146701135314586
42	0x3fad88489f980b36	0.057680387002639597
43	0x3fe1303e8793a7fb	0.5371391914352438
44	0xbfa49198bd2db385	-0.040173314183312527
45	0xbf688aa63542536d	-0.002995800614437652
46	0xbfb9f057fafbaaab	-0.10132360341564588
47	0xbfd218b3480cdb31	-0.2827575877776552
48	0x3fc1ab2a80a65233	0.1380360725567172
49	0x3fdb70c2a862ff47	0.42875734752668787
50	0x3fb0c43713de11f5	0.0654940055374665
51	0x3fb30ca799794de9	0.07441184517784162
52	0x3fe41a1bd284e51d	0.628187094850691
53	0x3fb102858cdfbb36	0.06644472779565266
54	0x3fbb3f71166f90f1	0.10643679425954013
55	0x3fe315672cc5ec80	0.5963626741862669
56	0x3fb1cd191ca63ea3	0.06953579854438856
57	0x0000000000000000	0.0
58	0x0000000000000000	0.0
59	0x0000000000000000	0.0
60	0xbfcc2ba6eac534c9	-0.22008215392489763
61	0xbfa59d3ec6466676	-0.04221531076764233
62	0x3ff05397829cbc14	1.020408163265306
63	0xbfc7f77c70f644f4	-0.1872401763508048
64	0xbfaf7dc9ec8b29d5	-0.06150656712050632
65	0x3fe3d7dbb7098351	0.6200998854584246
66	0x3fc0127fd3492725	0.12556455437361894
67	0x3f8a6145ce94257b	0.012880845419675371
68	0xbfc1b86d9f2cba57	-0.13844080230906528
69	0x3fc0e961558ae7b1	0.13212219883808765
70	0xbf9d89c3811675a7	-0.0288458392657184
71	0xbf978c1ca4c612fa	-0.02299542194079416
72	0xbfc6d29dfd5d868f	-0.17830252524713727
73	0xbfbde00ec715782d	-0.11670009956785128
74	0x3fe1f998dcbf2926	0.5617183982333571
75	0x3facd260493fddc7	0.05629254240187325
76	0xbfacb2f5b583484a	-0.05605285492642105
77	0xbfc20a81c19b8463	-0.14094564393511452
78	0xbfc3a383d42a1c47	-0.15342758044809754
79	0x3f92db8e17fc88b0	0.01841566106225717
80	0x3fd55c114f7396ba	0.33374436148583764
81	0xbfc3d5ada029d07e	-0.15495844192958325
82	0xbfa24b06b31550b9	-0.03572865425181377
83	0x3fda923557b1b79b	0.4151738506687878
84	0xbfc40f53f300fbe2	-0.15671777120039027
85	0xbf92cbe63015e15a	-0.018355938610939183
86	0x3fdacc9f54b40aec	0.4187391593151648
87	0x0000000000000000	0.0
88	0x0000000000000000	0.0
89	0x0000000000000000	0.0
90	0x3fe52c0cae145dda	0.661627140044341
91	0x3faaa63e122efcae	0.05204957935301856
92	0xbfc7f77c70f644f4	-0.1872401763508048
93	0x3ff05397829cbc15	1.0204081632653061
94	0xbf73a1a29c92f13a	-0.004792819215421235
95	0xbfc9405971dc1ce7	-0.19727628764687852
96	0x3fb5bb8e2d7f404d	0.08489311800735884
97	0xbfa0878af08be9fa	-0.032284108985511
98	0xbfa9844ae048042e	-0.04983743655976301
99	0xbfaf7feeffd6b613	-0.06152293084174345
100	0x3f9a7d00eb9bf5a5	0.025867475872464536
101	0xbfb784f6979e4d8a	-0.09187260820026757
102	0x3fee87d4501a7d1c	0.9540807308693817
103	0x3f8383daac3e9727	0.009528835660443115
104	0xbfbcf24ab0fbe69f	-0.11307207890413416
105	0xbfbbca1b89f10403	-0.10855266683303459
106	0xbf115bdec67e326b	-6.621882641706107e-05
107	0x3fbdad2f984fc96d	0.11592385738894047
108	0x3fe3725613dbc745	0.6077070606099616
109	0x3fb691757f0d8de7	0.08815702773932053
110	0xbfb67066ea3433a4	-0.0876526185786149
111	0x3fe042028d1f5237	0.5080578571601738
112	0x3fbc5b3baef961ce	0.1107671072180729
113	0xbfb219da06687927	-0.07070696503112527
114	0x3fe27815378af6b0	0.5771585545368989
115	0x3fb87a43577d45fd	0.09561558614702644
116	0xbfb38f4f0d0db6b1	-0.0764054686421456
117	0x0000000000000000	0.0
118	0x0000000000000000	0.0
119	0x0000000000000000	0.0
120	0xbfaef21071b3dbec	-0.060440553550442505
121	0x3fe01e5f53e6e5ee	0.5037075651845819
122	0xbfaf7dc9ec8b29d5	-0.06150656712050632
123	0xbf73a1a29c92f13a	-0.004792819215421235
124	0x3ff05397829cbc16	1.0204081632653064
125	0x3fa31d366ffc2a9a	0.037332249803587916
126	0x3fc3e79fc5cc7796	0.15550610693111072
127	0x3fe2e2cbc9637925	0.5901850636835532
128	0x3fc3ecb7a9b2c075	0.15566154275939295
129	0x3f9632a54e08eb07	0.02167757309710352
130	0x3fda05900899c5f0	0.40658951606664484
131	0x3fbd29abe108a9f1	0.11391710514059362
132	0xbfa31c61c3f24bc7	-0.03732591168331783
133	0x3feea8ad18059002	0.9580903500723255
134	0x3fae71964d218961	0.05946035090961988
135	0x3fb7e6c039e37a94	0.09336472905440935
136	0xbfb5f1990125a550	-0.08571773794178239
137	0xbf404eb0a0380e11	-0.000497661822408126
138	0x3fb5bf27a3fc1558	0.08494804147274715
139	0x3fe6c893df035263	0.7119845729562936
140	0xbfb78de302b18760	-0.09200877013929931
141	0xbfa416c0d966e107	-0.03923609403449473
142	0x3fe3907697e6b988	0.6113846747228289
143	0x3fa760549c07abf2	0.04565681843435944
144	0x3f9b7b64193b52cc	0.026837886848471368
145	0x3fe6558b3e6e4d63	0.6979423732140443
146	0x3f700545012632c6	0.003911275433335864
147	0x0000000000000000	0.0
148	0x0000000000000000	0.0
149	0x0000000000000000	0.0
150	0xbfcdb7c6cc47a881	-0.2321709153614542
151	0xbfbbdebff93a4e72	-0.10886764368688676
152	0x3fe3d7dbb7098351	0.6200998854584246
153	0xbfc9405971dc1ce7	-0.19727628764687852
154	0x3fa31d366ffc2a9a	0.037332249803587916
155	0x3ff05397829cbc14	1.020408163265306
156	0x3fb814c23f73e2c2	0.09406675385606447
157	0x3fc00616cfb7c10c	0.12518582479925333
158	0x3fcb9fc63c9b9a49	0.2158134265839229
159	0xbf68ae252a149972	-0.003012726389573555
160	0x3fc3694bce3aa9a0	0.15165088243277314
161	0x3fbf23325484fe26	0.12163080752815655
162	0xbfc753480abf25e9	-0.18222904705753187
163	0xbfad43e7c5f1b0ce	-0.05715870181379189
164	0x3fee87713f119302	0.9540334922608908
165	0xbfb3439c3f2d80a3	-0.07525040190148728
166	0xbfc4763c988368d5	-0.1598582977956712
167	0xbfb7e290db34278d	-0.09330087043431785
168	0xbfc0264db0716d97	-0.12616892924675646
169	0xbfb769e3fd9323c6	-0.09145951214590217
170	0x3fe0e16d99fe3e18	0.52751808239731
171	0xbfc3baa2ab64e40a	-0.1541331612477566
172	0xbfa67452b0433cfa	-0.04385622407573382
173	0x3fd2b1487a70335c	0.2920705028234829
174	0xbfc34d661657411f	-0.1507995232664223
175	0xbfb29dbc4cab9744	-0.07271935340722019
176	0x3fda67af516df43b	0.41257842018223173
177	0x0000000000000000	0.0
178	0x0000000000000000	0.0
179	0x0000000000000000	0.0
180	0xbfb86ec0f537a3a0	-0.09543996798278309
181	0x3fbfd81c1e924290	0.12439132448549572
182	0x3fc0127fd3492725	0.12556455437361894
183	0x3fb5bb8e2d7f404d	0.08489311800735884
184	0x3fc3e79fc5cc7796	0.15550610693111072
185	0x3fb814c23f73e2c2	0.09406675385606447
186	0x3ff05397829cbc15	1.0204081632653061
187	0x3fca5c2dd75c1393	0.20593808189019266
188	0x3fa2b48ed2be9a8c	0.03653379747929816
189	0x3fe9b3f0334ec317	0.8032151224234408
190	0x3fcd0202c71bf10c	0.22662386629225073
191	0x3f981b9a718afc97	0.023542798214063323
192	0xbfc58f704266da86	-0.16843989603303927
193	0x3fb1e2a0063b9d05	0.06986427452249096
194	0x3fbf9f9e1365b507	0.12352931951109634
195	0xbfbcf82a4ab2daa9	-0.11316170047471509
196	0xbfbaa5d5fe51fb94	-0.104092955198196
197	0x3fb17501762f9fe9	0.06819161544228759
198	0x3facf17dd17408f6	0.056529933755898584
199	0x3fb1b46241ebe9d8	0.06915868863499186
200	0x3fd0dd73182ddcc3	0.26351621018643473
201	0x3fb158a363037c8f	0.06775876204800312
202	0x3fd20c249a30a930	0.28199114854455143
203	0x3fc5eab9b3d1c3df	0.17122575073474786
204	0x3fb543656ab439e4	0.08305963378027276
205	0x3fcb5457794284e7	0.2135114042367043
206	0x3fcbe18486f4e5ff	0.21781975354842584
207	0x0000000000000000	0.0
208	0x0000000000000000	0.0
209	0x0000000000000000	0.0
210	0xbfc7bdd8f17661f2	-0.1854811839118749
211	0xbfbf8e0303b2eaf7	-0.12326067772202608
212	0x3f8a6145ce94257b	0.012880845419675371
213	0xbfa0878af08be9fa	-0.032284108985511
214	0x3fe2e2cbc9637925	0.5901850636835532
215	0x3fc00616cfb7c10c	0.12518582479925333
216	0x3fca5c2dd75c1393	0.20593808189019266
217	0x3ff05397829cbc13	1.0204081632653057
218	0x3fc9ab428176c55f	0.20053893395883457
219	0x3fc3dc3736691e85	0.15515794903534555
220	0x3febdd4f70f270f9	0.8707654195782474
221	0x3fce7b58b092e8ff	0.23813923475047002
222	0xbfb841222b5cc709	-0.09474385794308317
223	0x3fd81f08fd35018a	0.37689423300982894
224	0x3fc01cbcd862f56c	0.1258770042967784
225	0xbfb16c29af63d60f	-0.0680566838453489
226	0x3fac1e18eaa0a4c9	0.054917124405912406
227	0x3fd3a4a45473a609	0.306923944923796
228	0x3fab2c5f5470b421	0.05307290941014054
229	0x3fcc63d9703dd2f6	0.22179716091672902
230	0xbfb14b3ad73c0555	-0.06755416636226148
231	0xbfc18b01d0233ee1	-0.13705465949032372
232	0x3fcaff47f9fde806	0.2109155626929466
233	0xbf94e5357b5ea25e	-0.020405612616431028
234	0xbfae2d87d1ad49d0	-0.05894112047703326
235	0x3fce30f29d325542	0.23586876559844866
236	0xbf9ce4a9117f6634	-0.028216020291301727
237	0x0000000000000000	0.0
238	0x0000000000000000	0.0
239	0x0000000000000000	0.0
240	0xbfcae463fc1b0241	-0.21009492692793866
241	0xbfb277892125adbf	-0.07213646945245154
242	0xbfc1b86d9f2cba57	-0.13844080230906528
243	0xbfa9844ae048042e	-0.04983743655976301
244	0x3fc3ecb7a9b2c075	0.15566154275939295
245	0x3fcb9fc63c9b9a49	0.2158134265839229
246	0x3fa2b48ed2be9a8c	0.03653379747929816
247	0x3fc9ab428176c55f	0.20053893395883457
248	0x3ff05397829cbc14	1.020408163265306
249	0x3fb4934bfbe23240	0.08037257098676154
250	0x3fcf6821cff2aefb	0.2453653588648804
251	0x3fec3b9b2259731f	0.8822761221777887
252	0xbfb50a3c66dd4ef5	-0.08218743811931602
253	0x3fbb2477550451a4	0.106025179153511
254	0xbf813b4a795cea9c	-0.008413869694426972
255	0xbfa8510cecd41a46	-0.04749336615536896

threshold f8 []
0	0x402d0fedda037899	14.531111538814274
