models/mahalonobis_model.npz (npz, 8194 bytes, 3 tensors)

mu f8 [30]
000000 ec 51 b8 1e 85 eb da 3c cd cc cc cc cc cc d4 bc
       1.4943601911454608e-15 -1.1546319456101628e-15
000010 71 3d 0a d7 a3 b0 f4 3c c3 f5 28 5c 8f c2 85 3c
       4.594102875898898e-15 3.7747582837255325e-17
000020 52 b8 1e 85 eb 51 d4 bc 33 33 33 33 33 33 83 3c
       -1.127986593019159e-15 3.3306690738754695e-17
000030 a4 70 3d 0a d7 a3 60 bc ec 51 b8 1e 85 eb c5 bc
       -7.216449660063518e-18 -6.084022174945858e-16
000040 c3 f5 28 5c 8f c2 b5 3c 9a 99 99 99 99 99 69 3c
       3.019806626980426e-16 1.1102230246251566e-17
000050 ec 51 b8 1e 85 eb 91 3c 1f 85 eb 51 b8 1e 95 3c
       6.217248937900877e-17 7.327471962526034e-17
000060 29 5c 8f c2 f5 28 de 3c ec 51 b8 1e 85 eb c1 bc
       1.674216321134736e-15 -4.973799150320702e-16
000070 d7 a3 70 3d 0a d7 93 3c a4 70 3d 0a d7 a3 90 3c
       6.88338275267597e-17 5.773159728050814e-17
000080 52 b8 1e 85 eb 51 98 3c 7b 14 ae 47 e1 7a 74 bc
       8.43769498715119e-17 -1.7763568394002505e-17
000090 b8 1e 85 eb 51 d8 ec bc 7b 14 ae 47 e1 7a e6 3c
       -3.202438314531264e-15 2.495781359357352e-15
0000a0 b8 1e 85 eb 51 58 f7 bc ae 47 e1 7a 14 de c1 bc
       -5.183631301974856e-15 -4.959227473122496e-16
0000b0 52 b8 1e 85 eb 51 e1 3c 5c 8f c2 f5 28 5c eb 3c
       1.922906278650771e-15 3.0375701953744282e-15
0000c0 d7 a3 70 3d 0a 57 e2 3c e1 7a 14 ae 47 e1 d8 bc
       2.036149027162537e-15 -1.3811174426336947e-15
0000d0 b8 1e 85 eb 51 b8 e0 3c 00 00 00 00 00 00 00 00
       1.8562928971732616e-15 0.0
0000e0 00 00 00 00 00 00 00 00 00 00 00 00 00 00 00 00
       0.0 0.0

cov f8 [30, 30]
000000 11 bc 9c 82 97 53 f0 3f 05 ed 61 8a 61 5e bd 3f
       1.0204081632653053 0.11472139004211009
000010 ca c6 62 4f 76 d7 97 bf fe 06 db ad 51 be e2 3f
       -0.02328286036999464 0.5857323070160587
000020 27 79 2b 10 bc 78 bc 3f 46 08 08 34 e3 ab c8 bf
       0.11121726412554676 -0.19274559059710067
000030 e9 c7 fc 0c 8b d3 ab bf 2f c5 1d 48 9c 72 b1 3f
       -0.054348321280840946 0.06815506706859219
000040 f5 ce ec f2 15 8c c1 bf cc d9 34 cf e2 44 74 bf
       -0.1370875774533641 -0.004948507284373748
000050 43 65 90 9d 65 d3 6d bf 14 c3 05 19 9c 33 73 bf
       -0.0036408409764702456 -0.004687890774548693
000060 83 52 85 cc 72 08 e3 3f e7 3b 2c 61 d8 ae ba 3f
       0.5947813028856931 0.1042304265249495
000070 4b 85 6f 46 f9 68 c4 bf a9 05 07 f5 bd 58 9d bf
       -0.15945354403724318 -0.028658836441314204
000080 67 5c 95 fd d0 c3 d2 3f 97 12 21 ff d9 b3 bd 3f
       0.29320168270118646 0.11602556685199726
000090 70 62 f6 bf 24 62 d9 3f 27 09 cf 74 bb 08 ad 3f
       0.3966152071603011 0.05670724678886279
0000a0 fe 3e 6b b3 51 eb cd bf 34 bc 56 81 a8 0e d7 3f
       -0.2337438703602785 0.3602696669649419
0000b0 cf 38 23 71 7b db a9 3f ab cb 4d d8 e9 5a 85 bf
       0.05050264125894587 -0.01042730990750392
0000c0 41 ee 5a c0 de a6 da 3f 11 fa a0 d3 f2 89 b4 3f
       0.41643494400679876 0.08022992769927152
0000d0 d7 e9 25 2d 4c f7 b7 bf 00 00 00 00 00 00 00 00
       -0.09361721136330146 0.0
0000e0 00 00 00 00 00 00 00 00 00 00 00 00 00 00 00 00
       0.0 0.0
0000f0 05 ed 61 8a 61 5e bd 3f 13 bc 9c 82 97 53 f0 3f
       0.11472139004211009 1.0204081632653057
000100 d2 89 c4 99 b8 c5 9d bf 52 07 a1 f2 59 31 b6 3f
       -0.029074558625447562 0.08669054196891793
000110 49 05 27 22 b5 fa e2 3f 47 cb da 07 e9 bb a0 bf
       0.5931039492644824 -0.03268364163286335
000120 00 63 eb 74 ac a1 c3 bf 74 5c 1b 61 6d da 9f bf
       -0.153371388520803 -0.031106671382840692
000130 dd 8a ce 25 8f ee cf 3f 46 c6 26 16 35 40 cc bf
       0.2494677481273219 -0.22070945340742493
000140 87 1e f4 98 5c 1c b8 3f 68 0d 1e 90 b5 1e d9 3f
       0.09418276533335233 0.392499342670098
000150 7e 36 d4 ef 83 50 c7 3f c0 ed 33 f0 60 c6 e0 3f
       0.18214463434599176 0.5242161456548544
000160 d8 0e f1 e8 90 84 bd bf fa 5e 79 f1 af 0b b5 3f
       -0.11530404746104794 0.0822095837150946
000170 b0 91 b3 a5 bf bb 52 3f 61 53 ac f2 91 01 cd bf
       0.0011433955722220772 -0.2266104159286
000180 74 59 40 a6 95 56 94 bf 7d 43 92 7b 55 94 dc 3f
       -0.01986154391496471 0.4465535837890043
000190 7b a8 1f 7a 49 19 c2 bf 5f 01 93 ff 1b 88 af bf
       -0.14139669859952506 -0.06158530707171183
0001a0 77 f5 66 01 97 2c e2 3f 6e c4 83 4e 50 ec c0 bf
       0.567943098772658 -0.1322117217419278
0001b0 45 4b 7d 63 ac 85 ab bf 97 2e 04 f2 5d e7 e1 3f
       -0.05375422205420092 0.559493038833767
0001c0 be 9a 91 31 e0 d2 c0 bf 00 00 00 00 00 00 00 00
       -0.13143541736936543 0.0
0001d0 00 00 00 00 00 00 00 00 00 00 00 00 00 00 00 00
       0.0 0.0
0001e0 ca c6 62 4f 76 d7 97 bf d2 89 c4 99 b8 c5 9d bf
       -0.02328286036999464 -0.029074558625447562
0001f0 16 bc 9c 82 97 53 f0 3f 89 ce 04 f6 b6 91 b8 3f
       1.0204081632653064 0.0959734297401217
000200 f8 01 c6 20 31 5e b1 3f 3f 08 96 4e a4 2a e2 3f
       0.06784350443013654 0.567705300796895
000210 30 16 3f d3 ab cc 8a 3f fd 66 23 a9 69 0a aa 3f
       0.013085691818456174 0.0508606928794517
000220 83 d6 40 d2 01 7b c2 bf 76 42 25 f6 51 2c 9f bf
       -0.1443788792254744 -0.03044250550130064
000230 bc 68 fc 0b b5 d9 97 3f 56 86 fb d7 94 86 c3 bf
       0.02329142461449217 -0.15254459901830114
000240 e3 98 ac 9b c0 d6 b5 3f 18 c3 0d 21 94 ae ae 3f
       0.08530811119689789 0.05992567924011477
000250 32 fe 27 3c cd 8d e3 3f c3 51 11 b6 e6 c1 bc bf
       0.6110597777296276 -0.11233369774828987
000260 a4 5a 66 77 5b 5a b7 3f 6c 69 d8 70 8a f1 c5 3f
       0.09122249283823664 0.17143373975779796
000270 3e 28 1c 2f 97 b0 ab bf a2 44 f7 bd 0f ee c1 3f
       -0.05408165407250508 0.1400775601928546
000280 2f 76 78 40 66 95 e0 3f 3a c8 2c d9 b4 99 a8 bf
       0.5182372340384002 -0.04804768706380043
000290 69 fc 42 27 bd 47 a7 bf 3f 83 94 ed 33 21 e4 3f
       -0.04546919922130927 0.6290530815350407
0002a0 27 e2 fd ce 2c e3 a9 bf f7 e0 94 39 af a3 90 3f
       -0.05056133295778791 0.016249406709193583
0002b0 04 22 1d 2b 17 1e e4 3f 00 00 00 00 00 00 00 00
       0.6286731569353496 0.0
0002c0 00 00 00 00 00 00 00 00 00 00 00 00 00 00 00 00
       0.0 0.0
0002d0 fe 06 db ad 51 be e2 3f 52 07 a1 f2 59 31 b6 3f
       0.5857323070160587 0.08669054196891793
0002e0 89 ce 04 f6 b6 91 b8 3f 14 bc 9c 82 97 53 f0 3f
       0.0959734297401217 1.020408163265306
0002f0 cb d3 c3 08 50 53 ae 3f 3a 3b 34 bd 71 67 ce bf
       0.059229374952259294 -0.23753186930158582
000300 3f 51 99 8f d0 cd e0 3f 57 3f d3 79 26 d2 b7 bf
       0.5251238636651933 -0.09305038904426276
000310 bd 5e bb bc 32 c8 d3 bf dc 6e a5 ee da 14 d8 3f
       -0.30909412794924745 0.3762729006318588
000320 f2 ba e2 11 13 85 69 bf bc 57 a5 4f 4e fb d0 bf
       -0.003115212674934192 -0.2653384950439166
000330 4b 02 b1 96 5f da ee 3f f0 96 db 80 e9 99 ac 3f
       0.9641569083397113 0.055861756305416566
000340 38 5a 46 3b ef 67 c8 bf 7e 4c b8 b8 63 5c c7 bf
       -0.1906718291690639 -0.18250700492407995
000350 86 94 61 02 d8 af cd 3f 71 30 fd 6f 20 ff d1 3f
       0.23192882648723784 0.28119669853618406
000360 8f b1 c5 4f 38 53 e4 3f 65 78 39 32 af a2 91 bf
       0.6351586874057363 -0.01722215408369045
000370 ea 24 ca 6e 97 cd b1 bf e7 a8 f2 36 25 9e d1 3f
       -0.06954332785439346 0.2752774273491369
000380 e5 7a bf 08 4b fa b9 3f 27 44 d0 c7 26 fd c4 3f
       0.1014754196507784 0.16397557026405815
000390 e4 5b 86 83 4c 1e de 3f 45 a6 e4 6a 72 1f b6 3f
       0.470599296991564 0.08641734227844562
0003a0 23 79 1d 75 e2 d0 b9 3f 00 00 00 00 00 00 00 00
       0.10084357604271026 0.0
0003b0 00 00 00 00 00 00 00 00 00 00 00 00 00 00 00 00
       0.0 0.0
0003c0 27 79 2b 10 bc 78 bc 3f 49 05 27 22 b5 fa e2 3f
       0.11121726412554676 0.5931039492644824
0003d0 f8 01 c6 20 31 5e b1 3f cb d3 c3 08 50 53 ae 3f
       0.06784350443013654 0.059229374952259294
0003e0 13 bc 9c 82 97 53 f0 3f 75 d3 f6 59 3d 37 ca 3f
       1.0204081632653057 0.20481078045636605
0003f0 79 92 18 e4 50 8f d0 bf 5a 67 1f 8f 18 5b da 3f
       -0.25874731326101813 0.41181005455802266
000400 cf 21 93 5c ec d2 c5 3f fe 2b e6 d3 aa 56 d9 bf
       0.17049936790705408 -0.3959147519423708
000410 2b 15 5d 66 87 82 c0 3f f4 04 43 54 52 11 cb 3f
       0.12898342607710708 0.21146611322732378
000420 7a bc ee db d3 c1 c4 3f 5d f6 a6 74 71 5c ef 3f
       0.16216514815230082 0.9800345686305253
000430 bd b6 94 02 de b7 c7 3f 6b 1f 34 aa 0c 02 d3 3f
       0.1852986824609867 0.2970000898499083
000440 63 5d b5 a8 8b 77 ce 3f 02 31 cb 0e df 3b c5 bf
       0.23802324044911946 -0.16588962766980592
000450 85 ad 5b d2 0c 73 a8 bf 76 ed af 18 22 c3 e4 3f
       -0.04775276248787023 0.6488199693844041
000460 46 b5 d4 df 56 f4 a4 3f c1 b7 6b 48 79 f5 9c 3f
       0.040926661322695554 0.028280158086026356
000470 97 22 9b 4b 5e 41 da 3f d8 3d ea 1a 54 33 80 3f
       0.4102397669162569 0.007910401412373355
000480 c6 e8 d3 0b 82 24 41 3f 29 2f 09 aa 31 50 e1 3f
       0.0005231509200307675 0.5410393067372513
000490 18 33 3c 2f 4e 8d 9d 3f 00 00 00 00 00 00 00 00
       0.02885934985447411 0.0
0004a0 00 00 00 00 00 00 00 00 00 00 00 00 00 00 00 00
       0.0 0.0
0004b0 46 08 08 34 e3 ab c8 bf 47 cb da 07 e9 bb a0 bf
       -0.19274559059710067 -0.03268364163286335
0004c0 3f 08 96 4e a4 2a e2 3f 3a 3b 34 bd 71 67 ce bf
       0.567705300796895 -0.23753186930158582
0004d0 75 d3 f6 59 3d 37 ca 3f 14 bc 9c 82 97 53 f0 3f
       0.20481078045636605 1.020408163265306
0004e0 4f 0f 30 b3 7e d6 d1 bf a3 de 86 39 70 d0 bb 3f
       -0.2787167310600482 0.10864926723922479
0004f0 d3 60 1b 88 38 6f df 3f 58 db 35 f9 c5 dc cf bf
       0.4911633805436512 -0.248924967465167
000500 6e 43 9e b5 c7 89 6b 3f c9 ca 12 21 76 6a d1 3f
       0.0033615971160049695 0.2721228907568443
000510 e8 d4 fe c8 0d ae c7 bf 85 d2 1b 88 34 3a ca 3f
       -0.18499920191030772 0.20490128179485026
000520 0e 5a 11 69 27 e7 ee 3f 22 f5 34 9e 15 95 90 3f
       0.9657170345406614 0.016193712025814773
000530 76 fa de f6 89 c5 c3 3f cf 2e 1e e0 c2 6c 9a 3f
       0.15446590952156541 0.025805516175337936
000540 16 e2 10 8e d4 48 c4 bf ae 65 86 a2 ac 79 d0 3f
       -0.15847260414899783 0.25742641326504667
000550 13 32 0f 70 b4 53 e5 3f b0 d8 32 d1 68 3f ac bf
       0.6664678753527958 -0.055171275650921614
000560 09 f6 53 31 e1 7d b6 3f b9 a4 b2 cb 14 6d dc 3f
       0.08785827116295065 0.44415779011121576
000570 7f 50 d0 cb f2 b2 ba bf 11 f6 ec 18 64 b6 c2 3f
       -0.10429303623124218 0.14619113175460588
000580 d1 c2 76 9f 81 c6 e1 3f 00 00 00 00 00 00 00 00
       0.555481730893087 0.0
000590 00 00 00 00 00 00 00 00 00 00 00 00 00 00 00 00
       0.0 0.0
0005a0 e9 c7 fc 0c 8b d3 ab bf 00 63 eb 74 ac a1 c3 bf
       -0.054348321280840946 -0.153371388520803
0005b0 30 16 3f d3 ab cc 8a 3f 3f 51 99 8f d0 cd e0 3f
       0.013085691818456174 0.5251238636651933
0005c0 79 92 18 e4 50 8f d0 bf 4f 0f 30 b3 7e d6 d1 bf
       -0.25874731326101813 -0.2787167310600482
0005d0 16 bc 9c 82 97 53 f0 3f 3c 46 c2 33 db 59 d0 bf
       1.0204081632653064 -0.2554843907792905
0005e0 e9 cd 80 53 6d 9a d8 bf c7 eb ab 0f d7 fa ec 3f
       -0.3844254794559832 0.9056201273045809
0005f0 8c 7f 7c 01 e7 9b b9 bf 24 b9 c8 a6 88 4b d9 bf
       -0.10003513132369174 -0.39523521697528197
000600 a8 cd 2c 5a 56 2b d6 3f 0d e1 83 d2 60 51 d0 bf
       0.34639509969857807 -0.2549669318973578
000610 7f 23 10 31 8b 30 cc bf 68 ce 58 0e 0c 45 d8 bf
       -0.22023143668800668 -0.3792143001657906
000620 0a 9c 55 3f e7 7c af 3f bf 86 b7 8b bf 71 b7 3f
       0.06149981163144254 0.09157941018159031
000630 31 21 e9 d5 a1 d5 d6 3f bc f0 fb 22 21 7b d4 bf
       0.3567890728923145 -0.3200152246133816
000640 74 ac 20 98 5b 88 64 bf 35 7e a9 cd c7 27 a5 3f
       -0.0025064267110984032 0.04131912599109137
000650 43 4b 3d 96 bf 9e c4 bf ec 3f 9a 64 ed ee b4 3f
       -0.16109461627874042 0.08177074152104041
000660 56 b1 12 f6 0d 6b c8 3f 6e af 44 e1 35 ed cd bf
       0.1907670451668177 -0.23380158900669862
000670 a6 b0 a3 ee 33 ae ae 3f 00 00 00 00 00 00 00 00
       0.059922812348163476 0.0
000680 00 00 00 00 00 00 00 00 00 00 00 00 00 00 00 00
       0.0 0.0
000690 2f c5 1d 48 9c 72 b1 3f 74 5c 1b 61 6d da 9f bf
       0.06815506706859219 -0.031106671382840692
0006a0 fd 66 23 a9 69 0a aa 3f 57 3f d3 79 26 d2 b7 bf
       0.0508606928794517 -0.09305038904426276
0006b0 5a 67 1f 8f 18 5b da 3f a3 de 86 39 70 d0 bb 3f
       0.41181005455802266 0.10864926723922479
0006c0 3c 46 c2 33 db 59 d0 bf 15 bc 9c 82 97 53 f0 3f
       -0.2554843907792905 1.0204081632653061
0006d0 1b c9 73 ae 6f 9a ad 3f 50 32 b0 09 64 9d cf bf
       0.05781888012451671 -0.2469906852060313
0006e0 9d 0e ec 89 e5 ae e8 3f 97 20 dc dd 85 18 aa 3f
       0.7713496869841553 0.050968345005515996
0006f0 e0 cf 96 ba 04 2a 98 bf 92 c1 bf bd 2d aa ce 3f
       -0.023597787750716637 0.23956844105806546
000700 7a 1b 0f c7 e5 4c c4 3f 41 0c a8 3d 2b 2f d2 3f
       0.15859672755888338 0.284128961764683
000710 78 70 38 bf 63 4b c0 3f 44 49 8f c9 ee bf b1 3f
       0.12730070912300895 0.06933491154567145
000720 b4 86 2f bb db 4c b9 bf 94 fb 03 45 3b 60 c3 3f
       -0.09882901496851099 0.15137425298595686
000730 5b f7 40 8a e7 c3 86 bf e1 65 52 46 86 4f 56 3f
       -0.011115845591230735 0.001361733558303484
000740 b2 74 65 71 45 bb bf bf 4e a9 8d 83 48 76 9b 3f
       -0.12395128267731328 0.026818402318363348
000750 3e b8 ee dc db fa 9f bf 67 6e 4b 59 4d 6d 98 bf
       -0.03123038803067168 -0.023854454588997955
000760 81 70 80 5f 6b 22 7e 3f 00 00 00 00 00 00 00 00
       0.007357043672552633 0.0
000770 00 00 00 00 00 00 00 00 00 00 00 00 00 00 00 00
       0.0 0.0
000780 f5 ce ec f2 15 8c c1 bf dd 8a ce 25 8f ee cf 3f
       -0.1370875774533641 0.2494677481273219
000790 83 d6 40 d2 01 7b c2 bf bd 5e bb bc 32 c8 d3 bf
       -0.1443788792254744 -0.30909412794924745
0007a0 cf 21 93 5c ec d2 c5 3f d3 60 1b 88 38 6f df 3f
       0.17049936790705408 0.4911633805436512
0007b0 e9 cd 80 53 6d 9a d8 bf 1b c9 73 ae 6f 9a ad 3f
       -0.3844254794559832 0.05781888012451671
0007c0 16 bc 9c 82 97 53 f0 3f 75 f8 8f d8 e7 be d3 bf
       1.0204081632653064 -0.30852695606871033
0007d0 68 ee 40 77 4b 76 68 3f cc 88 ce 3f cc 02 ed 3f
       0.002986094850738575 0.9065915342546531
0007e0 1c d0 65 b5 70 e0 ce bf 32 98 b0 30 39 bd c4 3f
       -0.24122437341031933 0.16202463986809473
0007f0 75 ec 02 f9 80 7c cf 3f 6b 5b 0c fb 0b f9 c3 3f
       0.24598705443154115 0.1560378051587706

threshold f8 []
000000 cc c4 ba b8 d0 2d 26 40
       11.089483044432562
