models/mahalonobis_model.npz (npz, 9772 bytes, 3 tensors)

mu f8 [30]
00000000: a470 3d0a d7a3 903c 9a99 9999 9999 69bc
00000010: ec51 b81e 85eb 813c c3f5 285c 8fc2 cd3c
00000020: 14ae 47e1 7a54 ed3c ae47 e17a 14ae f0bc
00000030: b81e 85eb 51b8 6ebc c3f5 285c 8fc2 85bc
00000040: ec51 b81e 85eb 713c 85eb 51b8 1e85 6bbc
00000050: 3d0a d7a3 703d b23c a470 3d0a d7a3 70bc
00000060: 8fc2 f528 5c8f e13c 0ad7 a370 3d0a e63c
00000070: 713d 0ad7 a370 ee3c 0ad7 a370 3d0a 963c
00000080: 0000 0000 0000 743c 7b14 ae47 e17a 543c
00000090: 52b8 1e85 eb51 fdbc ae47 e17a 14ae e6bc
000000a0: 8fc2 f528 5c8f aa3c 8fc2 f528 5c8f ca3c
000000b0: 8fc2 f528 5c0f efbc 14ae 47e1 7a14 e43c
000000c0: ec51 b81e 85eb c93c 14ae 47e1 7a94 e83c
000000d0: a470 3d0a d7a3 b0bc 3333 3333 3333 9b3c
000000e0: 7b14 ae47 e17a 84bc b81e 85eb 51b8 7e3c
5.773159728050814e-17 -1.1102230246251566e-17 3.1086244689504386e-17 8.260059303211165e-16 3.256284131225584e-15 -3.703704010149522e-15 -1.3322676295501878e-17 -3.7747582837255325e-17
1.5543122344752193e-17 -1.1934897514720433e-17 2.5313084961453567e-16 -1.4432899320127036e-17 1.9495516312417747e-15 2.446931546273845e-15 3.3795188869589767e-15 7.646661082105765e-17
1.734723475976807e-17 4.440892098500626e-18 -6.510347816401918e-15 -2.517985819849855e-15 1.8429702208777598e-16 7.371880883511039e-16 -3.448352714485736e-15 2.229327833447314e-15
7.194245199571015e-16 2.7289281945286346e-15 -2.3092638912203257e-16 9.43689570931383e-17 -3.552713678800501e-17 2.6645352591003756e-17

cov f8 [30, 30]
00000000: 15bc 9c82 9753 f03f c5f7 bb3b 769d d3bf
00000010: 6b1d 05f7 e979 d43f 9bfd 4998 d543 a63f
00000020: f8e0 d201 8a7e 78bf eaca 9981 8402 d1bf
00000030: 4eee 7eac 1fe5 7b3f 14f5 4e0a 6e5d c53f
00000040: 9a25 b607 7263 a8bf 62f8 c582 fbfd d13f
00000050: 72b6 84d9 ff83 bbbf 0c88 4d9c 2165 c33f
00000060: c775 5590 dc2c 9ebf a087 b51b 3c37 b73f
00000070: 4a4b 83b1 d4a9 d4bf 8444 0415 315e b23f
00000080: 03a0 c679 8f03 9cbf c07c bf87 ee7e c33f
00000090: 58e6 44aa f644 b0bf e76b 7327 6f0e 903f
000000a0: 6dd9 2a04 b73a c8bf 8705 4540 5724 99bf
000000b0: 349f a829 abc0 adbf eda8 6d06 8256 8a3f
000000c0: c76b ef01 064c a9bf c610 3cc5 2741 6bbf
000000d0: f57c aeec d9d7 c3bf fd90 7a8d a29b 843f
000000e0: ca28 1619 fe14 c53f 2085 717a 7f0b c7bf
000000f0: c5f7 bb3b 769d d3bf 13bc 9c82 9753 f03f
00000100: b99a 4f03 a1e9 bc3f 9179 02f2 be6c c33f
00000110: e1fe f97c dc6e b73f 980e 4c98 11bb a53f
00000120: 50bb 1df1 a61f 7dbf c198 cf74 714e bdbf
00000130: 7b48 e4ca 2b92 be3f 808f 2e3f 731f d0bf
00000140: b95b 6598 db51 b7bf 9219 1fc6 ac7a d8bf
00000150: b5ed 07ae 8fdd c73f d2fd 1323 c3b7 b83f
00000160: bf05 bc7c d1c9 c23f 9483 e9b2 11c1 82bf
00000170: f427 6405 1dab 89bf 252d 2a21 4580 ca3f
00000180: 81c9 0a00 07d5 b63f 2d49 47c7 bc70 ab3f
00000190: 7b32 ea92 567c bd3f fefe 3a18 b6ba c63f
000001a0: a434 1a6f 7c15 c63f 678f 5789 d13e c03f
000001b0: cb14 6ad3 379f c03f 54ff eb86 9b78 b73f
000001c0: 9d55 172e 4546 bc3f 34a5 3f6d 390e afbf
000001d0: 9be3 1be5 d791 ccbf 4a40 0c97 06f9 9ebf
000001e0: 6b1d 05f7 e979 d43f b99a 4f03 a1e9 bc3f
000001f0: 14bc 9c82 9753 f03f ad3e 7c8f 520c aa3f
00000200: 3482 5ff4 4519 b2bf 099f 2456 74d7 d0bf
00000210: 65f3 1c9f 0eee af3f 9b06 a85c ecf2 a1bf
00000220: dbb2 8481 6891 c93f a210 059c a937 c13f
00000230: 0317 c186 c314 d5bf e596 1c60 67ab 9ebf
00000240: 8721 208e c7a3 9fbf 0ff1 42a3 9e1a a73f
00000250: db44 f302 b4ad d2bf 52b9 5762 013f c5bf
00000260: ccbc cec4 a68a cfbf 5f33 2626 264c df3f
00000270: d702 6733 1665 c1bf 54b3 da15 754b a43f
00000280: d06c 4420 f90b d0bf cb2c 5927 d3d2 a73f
00000290: ecfe 52a6 e712 c6bf cbf3 a982 fa7f b0bf
000002a0: c254 f5de a923 b3bf 179e 3231 c2b8 8bbf
000002b0: 08de 73f4 ecc2 cdbf d99d d63d 4b07 a13f
000002c0: 9214 8860 340d c83f 96ac 7b09 5918 c7bf
000002d0: 9bfd 4998 d543 a63f 9179 02f2 be6c c33f
000002e0: ad3e 7c8f 520c aa3f 12bc 9c82 9753 f03f
000002f0: 8b8c 1fbf e799 bd3f abad f7c5 22fc d0bf
00000300: 3169 d201 fb0a c7bf 35e7 8fbb 7199 afbf
00000310: 3eb5 8845 ef2a adbf 2d8d 51fc 39cd b73f
00000320: 7519 2376 eaac a53f 55eb f5da 38e2 bfbf
00000330: 31f7 1fbe 49bd ee3f e155 9147 3447 bb3f
00000340: b581 8d40 fbeb c7bf 5a1e bd41 e02a ab3f
00000350: 6ae7 1a7a 7b61 b0bf d8d6 7ab9 46be b23f
00000360: 7a8c d4fa 7782 e63f f12c b111 a56a ca3f
00000370: ae6c 7ae6 6b68 cfbf 43a5 5cfb 4e37 e23f
00000380: 6586 eede 7728 c03f 3430 7b40 c2db c6bf
00000390: d88c 3732 de8e e73f 9b02 e05b c23c c83f
000003a0: a18c e3e0 56fc cdbf 32a1 d30b d9a4 cabf
000003b0: 893e e47a 0024 bbbf 4277 1fdb d08c b6bf
000003c0: f8e0 d201 8a7e 78bf e1fe f97c dc6e b73f
000003d0: 3482 5ff4 4519 b2bf 8b8c 1fbf e799 bd3f
000003e0: 14bc 9c82 9753 f03f 86f4 8e19 6e65 bbbf
000003f0: a1de a468 3f71 52bf d889 e529 0bce cabf
00000400: ab90 24c2 13fc c4bf fb86 2869 bd7f b13f
00000410: 672c ca24 ff5f c23f 2736 b204 4f28 b63f
00000420: 45d5 e874 8058 b73f db76 6eb2 4e77 ee3f
00000430: e0cd 81c7 7442 bfbf 254a 6b42 c18b 99bf
00000440: 72e8 f6af cbc8 aabf 63d8 da04 b485 a1bf
00000450: 4f7c 676b 0635 c33f baeb e8af 9f54 e63f
00000460: e512 ea5b bf7a c23f b192 3ad0 6088 8ebf
00000470: 52a8 cd81 c2a4 e73f 4580 6dae ec13 bdbf
00000480: 57d5 e3d3 703e ba3f a576 c6c8 7603 e83f
00000490: ab8b 4bfc db4d b33f ca14 c507 3bde bbbf
000004a0: a161 c132 a8aa c43f b011 a231 017b d9bf
000004b0: eaca 9981 8402 d1bf 980e 4c98 11bb a53f
000004c0: 099f 2456 74d7 d0bf abad f7c5 22fc d0bf
000004d0: 86f4 8e19 6e65 bbbf 13bc 9c82 9753 f03f
000004e0: c9c6 d047 c15a b23f 6c08 3579 ea77 c73f
000004f0: b60d 57e8 558a 9fbf 6cf3 b913 f41d b6bf
00000500: 7cfc 572b 03a3 a23f c05f ee44 103c 95bf
00000510: e88e 0bda b7b0 d1bf 2d81 f412 4ed4 bfbf
00000520: 6451 d6c4 c87e ee3f 150d 0b49 a834 c1bf
00000530: e818 4951 24c0 be3f 57b8 660a 962f c1bf
00000540: e3f2 db97 0159 babf a467 1199 2d79 c1bf
00000550: 0290 4025 1b2f e83f 7a93 e40a 4949 cbbf
00000560: 836d 4295 fa55 a13f dd2a ce01 1e5b e33f
00000570: 5e4d 2d39 b539 c4bf 2c04 d3ac c149 b7bf
00000580: e0f0 81ba 86f0 e83f 844a 69ac d03b c23f
00000590: 4716 b523 5fda c0bf 0256 999d d291 533f
000005a0: 4eee 7eac 1fe5 7b3f 50bb 1df1 a61f 7dbf
000005b0: 65f3 1c9f 0eee af3f 3169 d201 fb0a c7bf
000005c0: a1de a468 3f71 52bf c9c6 d047 c15a b23f
000005d0: 12bc 9c82 9753 f03f 3e38 a507 c037 c1bf
000005e0: a4d5 ee4d deee 91bf 959b 5e43 dd00 c3bf
000005f0: 0a29 db9d 16c6 b43f b615 0b9b 507e c2bf
00000600: 062d 7f49 9507 c1bf 1277 92b4 a92d adbf
00000610: f8fd e863 d88c b93f 250a 010f 9450 743f
00000620: f2dc 1d35 ab11 c4bf 5a52 8277 e6f4 c93f
00000630: 6689 ab92 d87a 943f 563b 86ea 2bc0 ca3f
00000640: 3945 ab40 ae12 a7bf 021e 816e 7bde d0bf
00000650: 41e1 7c46 2dee 623f 4714 0ec2 b0cd bd3f
00000660: 8b01 ea69 cf75 b2bf ecae 9f29 07f7 c53f
00000670: 56ab c669 7de4 723f 6c6f e7ea d13c a9bf
00000680: efe2 123c 97c2 a33f 1719 5988 d2f9 c4bf
00000690: 14f5 4e0a 6e5d c53f c198 cf74 714e bdbf
000006a0: 9b06 a85c ecf2 a1bf 35e7 8fbb 7199 afbf
000006b0: d889 e529 0bce cabf 6c08 3579 ea77 c73f
000006c0: 3e38 a507 c037 c1bf 13bc 9c82 9753 f03f
000006d0: 0738 74fe ed4a d3bf 6d02 5c65 1c7e b3bf
000006e0: 0f5c e79a 77b2 b63f 9c9a 04d7 3758 bf3f
000006f0: fd53 4761 7530 aebf bf08 b706 0db7 c1bf
00000700: 6934 a6a5 1879 c93f 575b 2f15 0577 ad3f
00000710: a025 9664 9087 c4bf 3ace 0f41 7ee3 d2bf
00000720: dc89 e843 1726 b6bf 55a2 c27b 446f c3bf
00000730: f6ab 67d2 c285 983f 14b6 7b4e b711 a2bf
00000740: fa75 1adf c6e2 abbf f7ba 9528 4f2a 91bf
00000750: 227c abbc b1e0 b2bf dee0 c805 6a70 c1bf
00000760: b533 90c2 8572 8a3f 0816 7afc b415 bd3f
00000770: e103 2c15 e583 a7bf e02c 8e2c f75f d83f
00000780: 9a25 b607 7263 a8bf 7b48 e4ca 2b92 be3f
00000790: dbb2 8481 6891 c93f 3eb5 8845 ef2a adbf
000007a0: ab90 24c2 13fc c4bf b60d 57e8 558a 9fbf
000007b0: a4d5 ee4d deee 91bf 0738 74fe ed4a d3bf
000007c0: 14bc 9c82 9753 f03f 53db 5825 aa6c ab3f
000007d0: 5f0e 78bb 66eb b83f 1825 a16a 490b d8bf
000007e0: bf94 ed91 376c b3bf 97a8 e96e 4eb5 c9bf
000007f0: 3a13 4d23 766c b03f 3ed4 7166 8768 b73f
1.0204081632653061 -0.30648570855543894 0.31994103549046454 0.0434862850570383 -0.0059800520804673615 -0.26577866226504787 0.006810306287600888 0.16691375258771102
-0.04763370842108401 0.28112685938675075 -0.10748290119655637 0.15152378208136985 -0.029468008336484688 0.09068656612865178 -0.3228656514667604 0.0717497516927939
-0.027357332046136672 0.15231114986725025 -0.06355230004273815 0.015680062086953852 -0.1892918367718254 -0.024552691743570356 -0.05811056979683685 0.012860313244989341
-0.049408138023600716 -0.003326966931014838 -0.15502475792616335 0.010062475149716915 0.16470314240388567 -0.1800383899563167 -0.30648570855543894 1.0204081632653057
0.11293989497026304 0.15175616089704794 0.09153535891709509 0.04244284614653998 -0.007110263935699759 -0.11447819806889738 0.11941789344226265 -0.25191956682305516
-0.09109280081371098 -0.38248748157311596 0.1864490127335167 0.09655398947142338 0.14678400602865158 -0.009157312653032247 -0.012533404089953827 0.2070394908845198
0.08918803931263676 0.05359449322317498 0.11517850004947576 0.17757297690513235 0.17253070282859995 0.1269170685401335 0.12985894988029253 0.0916840748213848
0.11044723868629665 -0.06065539797402622 -0.22320078551254316 -0.03024683281825017 0.31994103549046454 0.11293989497026304 1.020408163265306 0.05087526322870182
-0.07069813934459362 -0.26315029537589446 0.06236310665415238 -0.03505648261126489 0.1997500069059218 0.13451118581918303 -0.32939232024760673 -0.029950728646460773
-0.030898206758168036 0.045124967030888745 -0.2918520001231408 -0.16598527242553957 -0.24641880616898104 0.4890227673102369 -0.13589742193109686 0.03963819400573834
-0.25073078299619755 0.04653034072233594 -0.17245193120287838 -0.06445279779468575 -0.07476293271368475 -0.013535992742915543 -0.2325111573806995 0.033258773134828785
0.18790297234969394 -0.1804305359176836 0.0434862850570383 0.15175616089704794 0.05087526322870182 1.0204081632653055 0.1156296578988522 -0.2653891499782854
-0.18002259816132374 -0.06171756186081582 -0.056968190420187956 0.09297525797005753 0.042334868355783074 -0.12454562516897501 0.9606064523102075 0.10655524012812335
-0.18688908245077376 0.05306149294352443 -0.06398746234017741 0.07321588543239999 0.7034263514546091 0.20637954105254822 -0.24537419084376694 0.5692515286838574
0.12623499284113673 -0.17858150623794844 0.7361899357605592 0.18935422407232214 -0.23426328640843955 -0.2081557567355588 -0.10601809501917549 -0.08808617925339227
-0.0059800520804673615 0.09153535891709509 -0.07069813934459362 0.1156296578988522 1.020408163265306 -0.10701645015702085 -0.0011256331659534118 -0.20941295190557585
-0.16394278506880275 0.06835540597287697 0.14355458542226815 0.08655256142284228 0.09119418005214637 0.9520638928404098 -0.12210779066827326 -0.024947185210132745
-0.052313199262656776 -0.034223199455866625 0.15005569691035922 0.6978300510157773 0.14437095630650912 -0.01490855823005552 0.7388622794362709 -0.11358527430047712
0.10251526997656889 0.7504228516952095 0.07540678891704881 -0.10885971965497557 0.16145803907671755 -0.3981326088617392 -0.26577866226504787 0.04244284614653998
-0.26315029537589446 -0.2653891499782854 -0.10701645015702085 1.0204081632653057 0.07169731143292347 0.18334704321211193 -0.030801145845328746 -0.08639455300904125
0.036399935761431274 -0.02073693676683752 -0.27641102117034544 -0.1243332668568697 0.9529765934444581 -0.13441947523652034 0.12011935219297565 -0.13426471240876722
-0.10292062718867671 -0.13651056264899097 0.7557502486783962 -0.21317399055365255 0.03385909149184398 0.6048727069149568 -0.15801110545963132 -0.09096918553679306
0.7793611185766416 0.14245041292686633 -0.13166417354129775 0.0011944348138021037 0.006810306287600888 -0.007110263935699759 0.06236310665415238 -0.18002259816132374
-0.0011256331659534118 0.07169731143292347 1.0204081632653055 -0.13451385854063064 -0.01751277304329836 -0.14846387662438745 0.08114758829029625 -0.14447982378457674
-0.1330439194556236 -0.056989005367752324 0.09980537833416026 0.004959658006614497 -0.15678920835100701 0.20278626284984363 0.019999870254545547 0.2089896102083581
-0.04506439723412332 -0.2635792330879384 0.0023108372005503923 0.1164198373572428 -0.07211014114182583 0.17160119564447684 0.004612436194672073 -0.0492921447036839
0.03859398468325092 -0.16387397439593407 0.16691375258771102 -0.11447819806889738 -0.03505648261126489 -0.06171756186081582 -0.20941295190557585 0.18334704321211193
-0.13451385854063064 1.0204081632653057 -0.30144834374448276 -0.07614304995150585 0.08866069347219273 0.1224398517557383 -0.05896345913394183 -0.1383987696445441
0.19900806511251126 0.057548674427087824 -0.1603870860238148 -0.2951350818031845 -0.0865187207023505 -0.15183311503394017 0.023947757808780744 -0.03529141266868066
-0.05446454499654503 -0.016762959339241736 -0.07374106270025085 -0.13624310762839448 0.012913746833896992 0.1136124721907309 -0.045928152880158064 0.38085727072821207
-0.04763370842108401 0.11941789344226265 0.1997500069059218 -0.056968190420187956 -0.16394278506880275 -0.030801145845328746 -0.01751277304329836 -0.30144834374448276
1.020408163265306 0.05356342035195518 0.09734193875197537 -0.37568889058145905 -0.07587001145073467 -0.200845531612974 0.06415499078600542 0.09143873454179727

threshold f8 []
00000000: 409c e5a9 2d9f 2740
11.810895261076553
