models/mahalonobis_model.npz (npz, 8194 bytes, 3 tensors)

mu f8 [30]
000000 52 b8 1e 85 eb 51 ac 3c e1 7a 14 ae 47 51 f3 bc
       1.965094753586527e-16 -4.289346655639292e-15
000010 85 eb 51 b8 1e 05 f1 bc 52 b8 1e 85 eb 51 98 3c
       -3.779199175824033e-15 8.43769498715119e-17
000020 8f c2 f5 28 5c 8f c3 bc ae 47 e1 7a 14 ae df 3c
       -5.428990590417015e-16 1.758593271006248e-15
000030 b8 1e 85 eb 51 b8 7e 3c 5c 8f c2 f5 28 5c af 3c
       2.6645352591003756e-17 2.1760371282653068e-16
000040 85 eb 51 b8 1e 85 c1 3c 7b 14 ae 47 e1 7a 74 bc
       4.862776847858186e-16 -1.7763568394002505e-17
000050 00 00 00 00 00 00 00 00 33 33 33 33 33 33 83 bc
       0.0 -3.3306690738754695e-17
000060 66 66 66 66 66 66 b6 bc 5c 8f c2 f5 28 5c c7 bc
       -3.108624468950438e-16 -6.483702463810914e-16
000070 8f c2 f5 28 5c cb ed 3c 8f c2 f5 28 5c 8f 82 bc
       3.3078401129316147e-15 -3.219646771412954e-17
000080 8f c2 f5 28 5c 8f 92 bc 33 33 33 33 33 33 83 3c
       -6.439293542825907e-17 3.3306690738754695e-17
000090 3d 0a d7 a3 70 3d eb 3c d7 a3 70 3d 0a 57 f0 3c
       3.0242475190789262e-15 3.6282088444750115e-15
0000a0 ec 51 b8 1e 85 eb d5 bc 9a 99 99 99 99 99 d1 3c
       -1.2168044349891717e-15 9.769962616701378e-16
0000b0 e1 7a 14 ae 47 e1 de 3c 00 00 00 00 00 00 c7 3c
       1.7141843500212416e-15 6.38378239159465e-16
0000c0 7b 14 ae 47 e1 7a e0 bc 71 3d 0a d7 a3 70 bd 3c
       -1.829647544582258e-15 4.085620730620576e-16
0000d0 9a 99 99 99 99 99 ca bc 00 00 00 00 00 00 00 00
       -7.382983113757291e-16 0.0
0000e0 00 00 00 00 00 00 00 00 00 00 00 00 00 00 00 00
       0.0 0.0

cov f8 [30, 30]
000000 14 bc 9c 82 97 53 f0 3f 4a 43 c8 5f d9 d8 c6 bf
       1.020408163265306 -0.1784927098929308
000010 47 a2 ed ea 44 aa a7 3f 0f 97 35 bc 4c 7e d0 3f
       0.046220925977483555 0.2577087247831153
000020 8f f2 b9 05 12 aa c4 bf 9c e4 3c db ac 04 c7 3f
       -0.16144013671500487 0.1798301764008884
000030 6c 21 d1 10 29 86 c0 bf 06 b0 c1 98 e7 22 b1 3f
       -0.12909425088060844 0.06693885306748379
000040 47 df 13 48 98 30 ca 3f e9 17 38 45 f6 5e b4 3f
       0.20460799712577168 0.07957400503082081
000050 0b ab f7 15 7a 97 ba 3f f1 ca 6d 08 d6 95 c7 3f
       0.10387385402979647 0.184260133853591
000060 ec bb 3b cb 8d b6 d1 3f b5 e2 c8 ab a6 ee cb bf
       0.27676720473294725 -0.2182205523293043
000070 65 8c 57 21 7b 84 c1 3f 6f 63 c7 51 7d 5d b0 3f
       0.13685549858118687 0.06392653700403426
000080 05 eb 27 19 92 a0 d2 3f 34 4a 73 09 d2 1c c2 3f
       0.2910504575408342 0.14150453053896828
000090 cb 1a 46 21 ef 37 d8 3f 14 6f 8d 76 d7 78 92 3f
       0.3784139466228395 0.01803909932219401
0000a0 5a df a1 2f 5e 21 c9 3f cb 97 34 72 be 3f e2 3f
       0.19633080793186758 0.5702812414717696
0000b0 09 ce 79 35 1b 39 a5 bf 2f 9f 9e cc 47 d4 d1 3f
       -0.041451311376388196 0.2785815714109842
0000c0 6d 00 d1 9d 0f dc e0 3f 39 0a 61 7d 2d 89 91 bf
       0.5268629152633487 -0.01712485387566629
0000d0 32 e9 2b b9 63 04 cf 3f 00 00 00 00 00 00 00 00
       0.24232145825937718 0.0
0000e0 00 00 00 00 00 00 00 00 00 00 00 00 00 00 00 00
       0.0 0.0
0000f0 4a 43 c8 5f d9 d8 c6 bf 11 bc 9c 82 97 53 f0 3f
       -0.1784927098929308 1.0204081632653053
000100 52 06 25 79 29 ab c9 bf 96 6f 2c dd fe a1 82 bf
       -0.20053594985260986 -0.009098044514352737
000110 d8 7c c3 a9 0f c1 e1 3f 35 37 e3 26 c8 61 c8 bf
       0.5548170390792633 -0.19048406504446694
000120 52 bd e0 fd 10 80 94 bf 7c af 6b ed cc cd c2 bf
       -0.020019784446217166 -0.1469055327682972
000130 97 a4 0a a7 cf f6 96 3f 60 64 20 2d f9 0a 7a bf
       0.02242588479081017 -0.006358121247125842
000140 3b ec 04 c6 dd 9c 9c bf 09 3d 0c dc ce 54 53 bf
       -0.02794214745629751 -0.001179887782374158
000150 28 fc da aa ac 47 96 bf ce 68 a1 66 4e e1 e2 3f
       -0.021757791450678493 0.590003204775053
000160 60 79 7e cb 4c 86 c1 bf dc 7c cc 41 90 13 cb 3f
       -0.13691101013405227 0.211534530762015
000170 75 ec 3d f7 77 bc b9 bf 31 d6 50 8c 6a 8a c3 bf
       -0.1005320528619665 -0.15266162730556368
000180 5a aa 5f 4a 83 2e b1 bf ba 93 4b 6a 79 64 e2 3f
       -0.06711597982181541 0.5747649265364239
000190 b4 af 3c 29 ee 38 78 3f 27 73 90 7d 03 95 b2 bf
       0.005913667980887927 -0.07258626761945362
0001a0 f0 1d 02 74 3f 4e e4 3f c1 0d 59 a7 bb dd ab bf
       0.6345517411982069 -0.05442606370754844
0001b0 f1 2a e0 bf 47 c2 b2 bf 31 88 8f 8a 10 49 e4 3f
       -0.07327698168243636 0.6339190202963946
0001c0 bd 04 34 14 5d 04 9b bf 00 00 00 00 00 00 00 00
       -0.026383833273034386 0.0
0001d0 00 00 00 00 00 00 00 00 00 00 00 00 00 00 00 00
       0.0 0.0
0001e0 47 a2 ed ea 44 aa a7 3f 52 06 25 79 29 ab c9 bf
       0.046220925977483555 -0.20053594985260986
0001f0 13 bc 9c 82 97 53 f0 3f bf 37 eb 08 dc 06 bc bf
       1.0204081632653057 -0.10947966783280004
000200 c0 c0 17 00 44 d6 c4 bf 6b 9c 77 4a 56 80 e4 3f
       -0.16278886799364578 0.6406661467016311
000210 a7 d1 55 b1 8e 19 c3 bf 6c d9 73 b2 e5 47 ae 3f
       -0.14921744975039283 0.05914228251815498
000220 80 92 55 f8 ac 30 d4 bf 8a 30 46 66 f1 dd c2 bf
       -0.31547092677491406 -0.1473981618295322
000230 39 60 ad de fb 84 98 3f fd 5c 6f 38 f7 14 c3 bf
       0.023944793192043987 -0.14907732253661968
000240 4f f4 80 d6 66 92 b1 bf 97 7b 08 4c 32 e5 cd bf
       -0.06864016281993311 -0.23355702126079045
000250 b0 6d da 6c 28 75 e5 3f 65 52 58 c8 03 f4 cf bf
       0.6705515028037805 -0.24963423998328263
000260 76 1c 37 c6 06 da cf 3f d6 b7 72 ae 0a dc 93 3f
       0.24884113958816884 0.019394080064266316
000270 92 1b 64 07 98 1a 97 3f 67 39 ab fc 8f 1b b7 bf
       0.022562385035623196 -0.09026431959794011
000280 ff 35 d7 3f da 5f dc 3f df 1a 8e d1 fe 61 bc 3f
       0.4433503745502491 0.11087029090968369
000290 84 10 2f 75 4b 91 c2 bf aa 9a 79 a2 f9 7a e0 3f
       -0.14505904409282178 0.5150116132106934
0002a0 86 bc 59 d8 f9 f0 b4 3f ff 4a 47 86 3a b4 c0 bf
       0.0818020013045829 -0.13050014072958757
0002b0 cf ad b8 02 a5 7b e0 3f 00 00 00 00 00 00 00 00
       0.51509333163761 0.0
0002c0 00 00 00 00 00 00 00 00 00 00 00 00 00 00 00 00
       0.0 0.0
0002d0 0f 97 35 bc 4c 7e d0 3f 96 6f 2c dd fe a1 82 bf
       0.2577087247831153 -0.009098044514352737
0002e0 bf 37 eb 08 dc 06 bc bf 15 bc 9c 82 97 53 f0 3f
       -0.10947966783280004 1.0204081632653061
0002f0 49 02 07 17 57 11 84 bf 53 a5 05 e3 22 7a 9c bf
       -0.009798698797454668 -0.027809662920309574
000300 13 8f 9b a3 25 dc db 3f 72 8b 15 34 35 c0 bc 3f
       0.43531170823392634 0.11230785867296136
000310 45 8d e0 21 38 02 c0 3f be 4a c6 a3 1f e9 d1 3f
       0.12506772665174473 0.27985373490916376
000320 56 01 de 95 5c b0 bb 3f a5 a8 ad a8 eb 89 b5 3f
       0.10815981539599781 0.08413575046657458
000330 37 bb 86 83 d4 a2 ef 3f 7b 5b b7 30 32 e5 aa bf
       0.9886267250893529 -0.05252987713509235
000340 02 1f 41 7f 69 0a 97 bf cc c2 4b d6 ff 33 c9 3f
       -0.02250065650176137 0.19689939464253425
000350 2a 20 c8 ee 6e a6 83 bf 3c c8 4e 7e 60 6b c4 bf
       -0.009594790136375837 -0.159526883767798
000360 b5 da 1a 0a c5 55 e6 3f b2 92 44 b5 d7 43 a3 3f
       0.6979699323045084 0.03762697303526376
000370 90 de 17 0c 98 e9 ac bf 17 7a 28 6e 0f db df 3f
       -0.05646968028662258 0.4977453780901739
000380 57 f6 da 90 26 cc ba 3f 43 0a 7f 32 0a 07 a4 3f
       0.10467759167200917 0.03911620966347986
000390 21 a6 a5 79 82 04 e3 3f 56 81 89 7b 05 6d b9 3f
       0.5943004966658841 0.09931978479426581
0003a0 e1 cf f0 23 8d 49 88 3f 00 00 00 00 00 00 00 00
       0.011859038028070703 0.0
0003b0 00 00 00 00 00 00 00 00 00 00 00 00 00 00 00 00
       0.0 0.0
0003c0 8f f2 b9 05 12 aa c4 bf d8 7c c3 a9 0f c1 e1 3f
       -0.16144013671500487 0.5548170390792633
0003d0 c0 c0 17 00 44 d6 c4 bf 49 02 07 17 57 11 84 bf
       -0.16278886799364578 -0.009798698797454668
0003e0 16 bc 9c 82 97 53 f0 3f df 9d 52 25 55 a7 ce bf
       1.0204081632653064 -0.23948158571623332
0003f0 c2 4c 8c be e4 ec b0 bf b2 00 33 d8 62 49 da 3f
       -0.06611470844318304 0.41072913277822487
000400 68 8f 24 70 24 d8 c5 bf 21 ee 42 0e 7a 94 bc bf
       -0.1706586406299906 -0.11164057586841426
000410 a0 6e 3c 6d 42 17 d5 3f 5d 5e a0 3f c9 ad c2 bf
       0.32954464595398214 -0.1459285317111946
000420 29 62 45 23 08 1f 3e bf d2 68 41 83 d6 ac ee 3f
       -0.0004596133105870004 0.9585983813842864
000430 89 df bd 2e d4 b7 c4 bf 67 b8 59 5c 3b 4c dd 3f
       -0.1618600109320563 0.4577778245792445
000440 ae 17 85 ad 6b af d2 3f e4 45 07 b2 19 e7 af bf
       0.29195682473470697 -0.06231003092001311
000450 ba b6 31 7f 7d 52 b0 bf 1e f9 fc e4 1f 8e e6 3f
       -0.06375870089842808 0.70484919285062
000460 d0 57 c7 d8 fe 70 99 bf 18 e2 d6 4e de 72 b2 bf
       -0.02484510610687335 -0.07206525254049045
000470 ba 1c 0f b1 e4 0a db 3f 3f 33 88 33 8d ad 8b bf
       0.4225398758976088 -0.01351461709512025
000480 3c dc cf 74 99 83 b3 bf 2f ac fe 00 85 86 e1 3f
       -0.07622679807524063 0.547670843070028
000490 cb da 86 c6 68 cf 80 bf 00 00 00 00 00 00 00 00
       -0.008208101805263898 0.0
0004a0 00 00 00 00 00 00 00 00 00 00 00 00 00 00 00 00
       0.0 0.0
0004b0 9c e4 3c db ac 04 c7 3f 35 37 e3 26 c8 61 c8 bf
       0.1798301764008884 -0.19048406504446694
0004c0 6b 9c 77 4a 56 80 e4 3f 53 a5 05 e3 22 7a 9c bf
       0.6406661467016311 -0.027809662920309574
0004d0 df 9d 52 25 55 a7 ce bf 13 bc 9c 82 97 53 f0 3f
       -0.23948158571623332 1.0204081632653057
0004e0 fc c7 d3 41 c4 b6 81 bf 6d 44 35 28 a0 84 c7 bf
       -0.008649380930794585 -0.18373491252217225
0004f0 6a 65 07 ac 57 de cc 3f 39 9b 8c 34 26 1c 7a bf
       0.22553535365913585 -0.006374501456582853
000500 92 00 91 2a f9 58 c8 bf 9f 40 48 16 4c d9 b6 3f
       -0.19021524980962973 0.08925319236755279
000510 f8 6c 9a e6 67 bf 98 bf 3b 83 bd e6 11 59 cf bf
       -0.02416765542021168 -0.2449056984578649
000520 5c a1 2a f5 5b 47 ef 3f 4d b7 03 d9 0d 2a c5 bf
       0.9774608410271344 -0.1653458890572729
000530 6c 99 b1 85 2e 94 c6 3f 39 a2 6b c7 37 a0 c3 bf
       0.1763971474458218 -0.153326961873306
000540 c9 aa b9 22 9d 6b 99 3f 63 8e 0d 87 d4 9c c6 bf
       0.024824576611005598 -0.17666107744581713
000550 1c ae e7 48 c0 03 e4 3f fe 10 f6 bd 26 ba c3 3f
       0.6254578994680204 0.15411838794182836
000560 81 80 66 ff 16 28 cb bf 96 0f 97 98 e3 0a df 3f
       -0.21216094465944837 0.4850396146905437
000570 29 c1 10 96 9f 27 bb 3f 76 86 d3 59 c2 0a cc bf
       0.1060733548517915 -0.2190783442120396
000580 6b ad 53 bd e1 3e e2 3f 00 00 00 00 00 00 00 00
       0.5701760003843622 0.0
000590 00 00 00 00 00 00 00 00 00 00 00 00 00 00 00 00
       0.0 0.0
0005a0 6c 21 d1 10 29 86 c0 bf 52 bd e0 fd 10 80 94 bf
       -0.12909425088060844 -0.020019784446217166
0005b0 a7 d1 55 b1 8e 19 c3 bf 13 8f 9b a3 25 dc db 3f
       -0.14921744975039283 0.43531170823392634
0005c0 c2 4c 8c be e4 ec b0 bf fc c7 d3 41 c4 b6 81 bf
       -0.06611470844318304 -0.008649380930794585
0005d0 16 bc 9c 82 97 53 f0 3f de fa c4 e0 cf dd a3 3f
       1.0204081632653064 0.0388016664387487
0005e0 d2 08 26 fd ad 54 91 3f 45 f4 58 db 52 6c ec 3f
       0.01692458970638528 0.8882231029634872
0005f0 11 0f 3f 8f 1c 77 91 3f a7 0c a8 de 3d eb b9 bf
       0.017055937045156237 -0.10124575315426175
000600 e9 09 89 74 ec d8 ce 3f 96 83 22 9d 5f 97 b9 bf
       0.24099498453331528 -0.09996602617549252
000610 a9 78 0a be 9d 1f 69 bf 16 60 64 65 a3 2a af 3f
       -0.003066833582422286 0.06087217915245462
000620 2e a4 6f ff 8d 42 d1 bf 13 5d cf 34 ac b1 ab bf
       -0.26968717522555863 -0.0540899099793767
000630 54 e4 e7 9f b2 66 d3 3f 1d a8 6b 1b 47 45 bb bf
       0.3031431733684873 -0.10652584475943212
000640 4c 92 ae 96 fa e8 ba bf e6 76 9a 2c 40 bb 9f 3f
       -0.10511747530706222 0.03098774215924651
000650 96 7a 71 8a 83 8b ab 3f 87 29 90 4f 92 66 bc bf
       0.05379878106099516 -0.11094011728724783
000660 be db 98 80 5e 05 c3 3f ed e7 2b 2c fe fa 46 3f
       0.1486013534465353 0.0007013073994521758
000670 74 ca 85 72 1d 92 bb bf 00 00 00 00 00 00 00 00
       -0.10769828840219892 0.0
000680 00 00 00 00 00 00 00 00 00 00 00 00 00 00 00 00
       0.0 0.0
000690 06 b0 c1 98 e7 22 b1 3f 7c af 6b ed cc cd c2 bf
       0.06693885306748379 -0.1469055327682972
0006a0 6c d9 73 b2 e5 47 ae 3f 72 8b 15 34 35 c0 bc 3f
       0.05914228251815498 0.11230785867296136
0006b0 b2 00 33 d8 62 49 da 3f 6d 44 35 28 a0 84 c7 bf
       0.41072913277822487 -0.18373491252217225
0006c0 de fa c4 e0 cf dd a3 3f 11 bc 9c 82 97 53 f0 3f
       0.0388016664387487 1.0204081632653053
0006d0 c1 b8 94 5c c3 5a ce bf ec 7a 03 b0 20 56 86 3f
       -0.23714487095407402 0.010906463023670786
0006e0 6d 4b d7 c1 a3 00 ed 3f d5 6c 74 5f ee c1 c4 bf
       0.9063280855137755 -0.16216830883863645
0006f0 f4 37 35 50 06 07 c1 3f dc 51 b2 7c 69 ef be 3f
       0.1330268756523193 0.12084063810681961
000700 93 11 87 b0 c2 ea c0 bf 63 85 c9 80 f2 0e d0 3f
       -0.13216432208549786 0.2509123094260614
000710 69 ab 68 c9 a3 67 db 3f c9 c0 e4 e5 e8 3d ac 3f
       0.42820067089876673 0.055159833968333745
000720 65 c4 f8 ba 35 cd bb 3f 6c 84 1c f6 c0 73 86 3f
       0.10860000433673773 0.010962970267032378
000730 be 25 1b 19 af 0d a7 bf 93 8e a4 fb 1a ee 93 3f
       -0.045026275458052364 0.019462987526948593
000740 f8 7c 35 47 31 d4 9c bf a8 ee a6 3e 14 40 c3 3f
       -0.028153200122116723 0.15039303836043882
000750 94 db 21 6b 99 30 ac 3f c7 7c 55 79 5d 19 84 3f
       0.055058283164661465 0.009814005151098105
000760 52 9e 58 2b bf f3 b2 3f 00 00 00 00 00 00 00 00
       0.07403178032165528 0.0
000770 00 00 00 00 00 00 00 00 00 00 00 00 00 00 00 00
       0.0 0.0
000780 47 df 13 48 98 30 ca 3f 97 a4 0a a7 cf f6 96 3f
       0.20460799712577168 0.02242588479081017
000790 80 92 55 f8 ac 30 d4 bf 45 8d e0 21 38 02 c0 3f
       -0.31547092677491406 0.12506772665174473
0007a0 68 8f 24 70 24 d8 c5 bf 6a 65 07 ac 57 de cc 3f
       -0.1706586406299906 0.22553535365913585
0007b0 d2 08 26 fd ad 54 91 3f c1 b8 94 5c c3 5a ce bf
       0.01692458970638528 -0.23714487095407402
0007c0 13 bc 9c 82 97 53 f0 3f 97 33 91 fb 5f c3 59 bf
       1.0204081632653057 -0.0015724599200155115
0007d0 c5 2d 88 13 ee 08 c0 bf 72 c9 6c fa 4a 59 ea 3f
       -0.12527252153118532 0.8234000102150232
0007e0 9e 85 8e 81 64 57 c0 3f 89 83 3d a8 12 d1 b9 bf
       0.12766701055538204 -0.10084644896916307
0007f0 08 7e 61 e6 d1 15 93 3f 53 cc 44 b1 d5 bd aa 3f
       0.018637923895196834 0.052229574097872565

threshold f8 []
000000 d1 f6 8d 46 01 1f 2a 40
       13.060556607083898
