models/mahalonobis_model.npz (npz, 2674 bytes, 3 tensors)

mu f8 [15]
00000000: 7b14 ae47 e17a e8bc 14ae 47e1 7a94 c4bc
00000010: 5c8f c2f5 285c e63c ec51 b81e 85eb 913c
00000020: 7b14 ae47 e1fa e2bc 0ad7 a370 3d0a db3c
00000030: d7a3 703d 0ad7 733c 295c 8fc2 f528 ac3c
00000040: a470 3d0a d7a3 903c 7b14 ae47 e17a 643c
00000050: 9a99 9999 9999 993c 0ad7 a370 3d0a 87bc
00000060: a470 3d0a d7a3 c03c 9a99 9999 9939 f1bc
00000070: 6666 6666 6666 f43c
-2.7178259642823833e-15 -5.71209746169643e-16 2.48245868306185e-15 6.217248937900877e-17 -2.107203300738547e-15 1.5010215292932116e-15 1.7208456881689926e-17 1.9539925233402755e-16
5.773159728050814e-17 8.881784197001253e-18 8.881784197001253e-17 -3.9968028886505634e-17 4.618527782440651e-16 -3.8247183198336646e-15 4.529709940470638e-15

cov f8 [15, 15]
00000000: 13bc 9c82 9753 f03f 3ab4 acfd 146d 68bf
00000010: 4ba3 91b0 666a b23f 35b6 71dd 986b e53f
00000020: 4b33 ebc4 9cad a5bf 319e ba67 dab0 b3bf
00000030: f2ff 9de2 e48b c43f a7cf d247 1f27 c33f
00000040: fc69 c4ce a9bf a4bf 12c0 677b e276 ba3f
00000050: 23d7 3e67 5ab0 cc3f 71c2 912d 4928 6c3f
00000060: e39f d2e8 64f8 e33f 5824 ee6b 6081 b9bf
00000070: 4379 ebfc 002f bebf 3ab4 acfd 146d 68bf
00000080: 15bc 9c82 9753 f03f 35f9 2fda 49a7 d33f
00000090: 2e64 7eb2 1edc a73f 0dc1 7982 a47d e03f
000000a0: 4aa9 ebdd 42a6 c83f b44f 42c5 1987 9f3f
000000b0: fef8 3426 39af c0bf f537 7e3c 743f c3bf
000000c0: 3615 1964 bbe3 9fbf e6c3 f42e edcd a0bf
000000d0: ac16 4894 a67b abbf ab1e 5d40 8ccf b63f
000000e0: bab0 9ce1 f417 e13f fa7d 1b28 f2bc ca3f
000000f0: 4ba3 91b0 666a b23f 35f9 2fda 49a7 d33f
00000100: 17bc 9c82 9753 f03f ed0b 4325 eb7b c03f
00000110: 71ee e14c a8c0 c33f c077 b444 ee4a e13f
00000120: 6458 563f 5318 c23f c733 2ac1 204a 5abf
00000130: 640d a650 ce4e cdbf 9b03 c3f4 4c5a be3f
00000140: 5c2e bcb8 4322 c53f d77e d81f e4fd 98bf
00000150: ba79 60a6 0b39 b83f 07ca 8a0e 1d05 bc3f
00000160: 3032 1795 c8f4 e03f 35b6 71dd 986b e53f
00000170: 2e64 7eb2 1edc a73f ed0b 4325 eb7b c03f
00000180: 14bc 9c82 9753 f03f 2aa7 4361 09f6 9cbf
00000190: 2870 17d7 d980 bebf bd3d 6439 db12 e13f
000001a0: edf9 a02f f829 ba3f 76a1 c52d 7a82 bfbf
000001b0: 258a 735f 4031 cc3f e96c 7dbd a3a2 ca3f
000001c0: 05e9 0635 4e7f 7bbf 6c45 36c8 a0fd ee3f
000001d0: 2f65 6410 0640 a4bf 0337 cf5c afd9 bebf
000001e0: 4b33 ebc4 9cad a5bf 0dc1 7982 a47d e03f
000001f0: 71ee e14c a8c0 c33f 2aa7 4361 09f6 9cbf
00000200: 15bc 9c82 9753 f03f f49e 5db0 513b ae3f
00000210: 7580 ec2b ebcb 85bf 1640 cb5c 10e8 db3f
00000220: 50ba e87c 809c 9abf 1b74 99bd 4ed1 84bf
00000230: f893 5e1d db72 d03f a58c 92b4 aa57 853f
00000240: c67a 705f d410 803f c5ee 9978 2cc6 ee3f
00000250: 3a8f e0c6 4e65 883f 319e ba67 dab0 b3bf
00000260: 4aa9 ebdd 42a6 c83f c077 b444 ee4a e13f
00000270: 2870 17d7 d980 bebf f49e 5db0 513b ae3f
00000280: 16bc 9c82 9753 f03f 5c45 65c5 4896 a63f
00000290: 59e1 7d2e 1c39 c1bf 75b7 fd69 323d d03f
000002a0: 7218 705d c163 a03f f3e8 81ca 96eb c0bf
000002b0: 987d 43b7 8896 c43f 0326 9750 b0a2 bebf
000002c0: ed69 6004 0c41 bb3f e0b7 95ed 15c5 ed3f
000002d0: f2ff 9de2 e48b c43f b44f 42c5 1987 9f3f
000002e0: 6458 563f 5318 c23f bd3d 6439 db12 e13f
000002f0: 7580 ec2b ebcb 85bf 5c45 65c5 4896 a63f
00000300: 15bc 9c82 9753 f03f 0f84 05aa b52c c7bf
00000310: 86d5 1ff3 b708 a3bf d0f8 2bfe e97b eb3f
00000320: c884 df60 f0c0 bcbf 27df 6adc 7851 993f
00000330: 7431 6866 0ae7 d23f 2ad0 3c47 528c ae3f
00000340: c224 7912 c247 9d3f a7cf d247 1f27 c33f
00000350: fef8 3426 39af c0bf c733 2ac1 204a 5abf
00000360: edf9 a02f f829 ba3f 1640 cb5c 10e8 db3f
00000370: 59e1 7d2e 1c39 c1bf 0f84 05aa b52c c7bf
00000380: 16bc 9c82 9753 f03f 4b9a d599 ab6b abbf
00000390: e88c 17dc af41 cfbf c111 01b1 c36a ea3f
000003a0: 6d6b 8bb5 cf27 8a3f c7e2 c115 9669 c33f
000003b0: 016c 1ec8 7ba0 c93f 769c cc00 2f86 c4bf
000003c0: fc69 c4ce a9bf a4bf f537 7e3c 743f c3bf
000003d0: 640d a650 ce4e cdbf 76a1 c52d 7a82 bfbf
000003e0: 50ba e87c 809c 9abf 75b7 fd69 323d d03f
000003f0: 86d5 1ff3 b708 a3bf 4b9a d599 ab6b abbf
00000400: 16bc 9c82 9753 f03f 8e37 def7 e857 b2bf
00000410: d9aa 032c b272 cebf 3bb3 78bf b3c2 ec3f
00000420: cd42 0b48 b684 c0bf 16b6 a7b3 d9dc a83f
00000430: e976 d2c4 035b babf 12c0 677b e276 ba3f
00000440: 3615 1964 bbe3 9fbf 9b03 c3f4 4c5a be3f
00000450: 258a 735f 4031 cc3f 1b74 99bd 4ed1 84bf
00000460: 7218 705d c163 a03f d0f8 2bfe e97b eb3f
00000470: e88c 17dc af41 cfbf 8e37 def7 e857 b2bf
00000480: 11bc 9c82 9753 f03f 1249 a8d6 3c48 cabf
00000490: 7f3f c541 5a02 97bf 8131 b2cf 8295 a8bf
000004a0: f25a 7117 601b af3f 5b40 522d 6843 9a3f
000004b0: 23d7 3e67 5ab0 cc3f e6c3 f42e edcd a0bf
000004c0: 5c2e bcb8 4322 c53f e96c 7dbd a3a2 ca3f
000004d0: f893 5e1d db72 d03f f3e8 81ca 96eb c0bf
000004e0: c884 df60 f0c0 bcbf c111 01b1 c36a ea3f
000004f0: d9aa 032c b272 cebf 1249 a8d6 3c48 cabf
00000500: 15bc 9c82 9753 f03f 9cc8 567c aa28 c1bf
00000510: a192 a6f5 6690 cf3f 13b8 16e8 bbe1 8fbf
00000520: 1393 5812 d886 b9bf 71c2 912d 4928 6c3f
00000530: ac16 4894 a67b abbf d77e d81f e4fd 98bf
00000540: 05e9 0635 4e7f 7bbf a58c 92b4 aa57 853f
00000550: 987d 43b7 8896 c43f 27df 6adc 7851 993f
00000560: 6d6b 8bb5 cf27 8a3f 3bb3 78bf b3c2 ec3f
00000570: 7f3f c541 5a02 97bf 9cc8 567c aa28 c1bf
00000580: 15bc 9c82 9753 f03f 1ffc cf8c 3b31 a3bf
00000590: 240b 5f4e 80f7 b13f 6eeb 259e e51e ccbf
000005a0: e39f d2e8 64f8 e33f ab1e 5d40 8ccf b63f
000005b0: ba79 60a6 0b39 b83f 6c45 36c8 a0fd ee3f
000005c0: c67a 705f d410 803f 0326 9750 b0a2 bebf
000005d0: 7431 6866 0ae7 d23f c7e2 c115 9669 c33f
000005e0: cd42 0b48 b684 c0bf 8131 b2cf 8295 a8bf
000005f0: a192 a6f5 6690 cf3f 1ffc cf8c 3b31 a3bf
00000600: 15bc 9c82 9753 f03f 16da 59b2 16ae 86bf
00000610: 1ca2 289c 6b4a babf 5824 ee6b 6081 b9bf
00000620: bab0 9ce1 f417 e13f 07ca 8a0e 1d05 bc3f
00000630: 2f65 6410 0640 a4bf c5ee 9978 2cc6 ee3f
00000640: ed69 6004 0c41 bb3f 2ad0 3c47 528c ae3f
00000650: 016c 1ec8 7ba0 c93f 16b6 a7b3 d9dc a83f
00000660: f25a 7117 601b af3f 13b8 16e8 bbe1 8fbf
00000670: 240b 5f4e 80f7 b13f 16da 59b2 16ae 86bf
00000680: 15bc 9c82 9753 f03f 660c d54f 5a0a a43f
00000690: 4379 ebfc 002f bebf fa7d 1b28 f2bc ca3f
000006a0: 3032 1795 c8f4 e03f 0337 cf5c afd9 bebf
000006b0: 3a8f e0c6 4e65 883f e0b7 95ed 15c5 ed3f
000006c0: c224 7912 c247 9d3f 769c cc00 2f86 c4bf
000006d0: e976 d2c4 035b babf 5b40 522d 6843 9a3f
000006e0: 1393 5812 d886 b9bf 6eeb 259e e51e ccbf
000006f0: 1ca2 289c 6b4a babf 660c d54f 5a0a a43f
00000700: 13bc 9c82 9753 f03f
1.0204081632653057 -0.002981701848872945 0.07193605242504224 0.6693844151574867 -0.04234018234055855 -0.07691731483884535 0.16051922860424345 0.1496314144802657
-0.040524775018827314 0.10337653649162373 0.22413187066347814 0.0034371785409848467 0.6240715548819903 -0.09963038096442867 -0.11790472197342176 -0.002981701848872945
1.0204081632653061 0.30708547885287213 0.04660125664595004 0.5153372333861924 0.19257388912167023 0.030788805641875874 -0.13034738889286496 -0.1503739638687304
-0.031142166122909397 -0.03282109449572328 -0.05367775497510982 0.08910442897205921 0.5341743856893324 0.2088911720120306 0.07193605242504224 0.30708547885287213
1.0204081632653066 0.1287816936438441 0.1543169379618692 0.5403968183415984 0.14136734573975496 -0.0016045875424055432 -0.22896746576234783 0.11856537795666926
0.16510817070262618 -0.02440601772661818 0.09462044536528583 0.10945302586586801 0.5298808013845413 0.6693844151574867 0.04660125664595004 0.1287816936438441
1.020408163265306 -0.02828230529932011 -0.11915360928782148 0.5335517998627705 0.10220290339291412 -0.12308467500191064 0.2202530351706439 0.2080883670085776
-0.006713204857471182 0.9684604559317171 -0.03955096197223395 -0.12050910964827825 -0.04234018234055855 0.5153372333861924 0.1543169379618692 -0.02828230529932011
1.0204081632653061 0.059046318797127656 -0.010642850187253064 0.4360390573683629 -0.025987632392736437 -0.010164847527613976 0.2570102488337507 0.010421117435106384
0.00784459987886289 0.9616911273473866 0.01191197914528851 -0.07691731483884535 0.19257388912167023 0.5403968183415984 -0.11915360928782148 0.059046318797127656
1.0204081632653064 0.0441153279267705 -0.1345553614626265 0.25373516417209113 0.03201107278441463 -0.1321896065526925 0.16084393452090917 -0.1196699330095257
0.1064612875638102 0.9303083076790664 0.16051922860424345 0.030788805641875874 0.14136734573975496 0.5335517998627705 -0.010642850187253064 0.0441153279267705
1.0204081632653061 -0.1810519294913608 -0.037175892284646614 0.8588762249271671 -0.11231901516977694 0.024724853947844096 0.2953516006534962 0.059664317317953255
0.02859404790641374 0.1496314144802657 -0.13034738889286496 -0.0016045875424055432 0.10220290339291412 0.4360390573683629 -0.1345553614626265 -0.1810519294913608
1.0204081632653064 -0.05355583432065155 -0.24419210669211755 0.8255327660668216 0.01277124665050674 0.15165973722812096 0.2002100684302093 -0.16034495867754445
-0.040524775018827314 -0.1503739638687304 -0.22896746576234783 -0.12308467500191064 -0.025987632392736437 0.25373516417209113 -0.037175892284646614 -0.05355583432065155
1.0204081632653064 -0.07165390063729957 -0.2378752436555576 0.8987673511197508 -0.12905004995129446 0.048559954815441994 -0.10295127444484432 0.10337653649162373
-0.031142166122909397 0.11856537795666926 0.2202530351706439 -0.010164847527613976 0.03201107278441463 0.8588762249271671 -0.24419210669211755 -0.07165390063729957
1.0204081632653053 -0.20532951813999795 -0.022469911827385666 -0.048015678266071234 0.06075573240439337 0.025647762075607577 0.22413187066347814 -0.03282109449572328
0.16510817070262618 0.2080883670085776 0.2570102488337507 -0.1321896065526925 -0.11231901516977694 0.8255327660668216 -0.2378752436555576 -0.20532951813999795
1.0204081632653061 -0.13405352660408176 0.24659430498754367 -0.015567272205625959 -0.09971380660915612 0.0034371785409848467 -0.05367775497510982 -0.02440601772661818
-0.006713204857471182 0.010421117435106384 0.16084393452090917 0.024724853947844096 0.01277124665050674 0.8987673511197508 -0.022469911827385666 -0.13405352660408176
1.0204081632653061 -0.03748499006177774 0.07018281854020053 -0.21969289991451596 0.6240715548819903 0.08910442897205921 0.09462044536528583 0.9684604559317171
0.00784459987886289 -0.1196699330095257 0.2953516006534962 0.15165973722812096 -0.12905004995129446 -0.048015678266071234 0.24659430498754367 -0.03748499006177774
1.0204081632653061 -0.011074235265579307 -0.1026980644461521 -0.09963038096442867 0.5341743856893324 0.10945302586586801 -0.03955096197223395 0.9616911273473866
0.1064612875638102 0.059664317317953255 0.2002100684302093 0.048559954815441994 0.06075573240439337 -0.015567272205625959 0.07018281854020053 -0.011074235265579307
1.0204081632653061 0.03914148544802103 -0.11790472197342176 0.2088911720120306 0.5298808013845413 -0.12050910964827825 0.01191197914528851 0.9303083076790664
0.02859404790641374 -0.16034495867754445 -0.10295127444484432 0.025647762075607577 -0.09971380660915612 -0.21969289991451596 -0.1026980644461521 0.03914148544802103
1.0204081632653057

threshold f8 []
00000000: e8b9 ba53 29d0 1a40
6.703282650253165
